…
2022-04-19 15:42:33 [INFO] Fx trace of the entire model failed, We will conduct auto quantization
2022-04-19 15:42:33 [WARNING] Please note that calibration sampling size 100 isn't divisible exactly by batch size 8. So the real sampling size is 104.
=========== asym_float placeholder
PyTorchFXModel(
  (_model): BertForMultipleChoice(
    (bert): BertModel(
      (embeddings): BertEmbeddings(
        (word_embeddings): GraphModule(
          (module): QuantizedEmbedding(num_embeddings=30522, embedding_dim=768, dtype=torch.quint8, qscheme=torch.per_channel_affine_float_qparams)
        )
        (position_embeddings): GraphModule(
          (module): Embedding(512, 768)
        )
        (token_type_embeddings): GraphModule(
          (module): Embedding(2, 768)
        )
        (LayerNorm): GraphModule(
          (module): LayerNorm((768,), eps=1e-12, elementwise_affine=True)
        )
        (dropout): Dropout(p=0.1, inplace=False)
      )
      (encoder): BertEncoder(
        (layer): ModuleList(
          (0): BertLayer(
            (attention): BertAttention(
              (self): BertSelfAttention(
                (query): GraphModule(
                  (module): Linear(in_features=768, out_features=768, bias=True)
                )
                (key): GraphModule(
                  (module): Linear(in_features=768, out_features=768, bias=True)
                )
                (value): GraphModule(
                  (module): Linear(in_features=768, out_features=768, bias=True)
                )
                (dropout): Dropout(p=0.1, inplace=False)
              )
              (output): GraphModule(
                (dense): Linear(in_features=768, out_features=768, bias=True)
                (dropout): Dropout(p=0.1, inplace=False)
                (LayerNorm): LayerNorm((768,), eps=1e-12, elementwise_affine=True)
              )
            )
            (intermediate): GraphModule(
              (dense): Linear(in_features=768, out_features=3072, bias=True)
            )
            (output): GraphModule(
              (dense): Linear(in_features=3072, out_features=768, bias=True)
              (dropout): Dropout(p=0.1, inplace=False)
              (LayerNorm): LayerNorm((768,), eps=1e-12, elementwise_affine=True)
            )
          )
          (1): BertLayer(
            (attention): BertAttention(
              (self): BertSelfAttention(
                (query): GraphModule(
                  (module): Linear(in_features=768, out_features=768, bias=True)
                )
                (key): GraphModule(
                  (module): Linear(in_features=768, out_features=768, bias=True)
                )
                (value): GraphModule(
                  (module): Linear(in_features=768, out_features=768, bias=True)
                )
                (dropout): Dropout(p=0.1, inplace=False)
              )
              (output): GraphModule(
                (dense): Linear(in_features=768, out_features=768, bias=True)
                (dropout): Dropout(p=0.1, inplace=False)
                (LayerNorm): LayerNorm((768,), eps=1e-12, elementwise_affine=True)
              )
            )
            (intermediate): GraphModule(
              (dense): Linear(in_features=768, out_features=3072, bias=True)
            )
            (output): GraphModule(
              (dense): Linear(in_features=3072, out_features=768, bias=True)
              (dropout): Dropout(p=0.1, inplace=False)
              (LayerNorm): LayerNorm((768,), eps=1e-12, elementwise_affine=True)
            )
          )
          (2): BertLayer(
            (attention): BertAttention(
              (self): BertSelfAttention(
                (query): GraphModule(
                  (module): Linear(in_features=768, out_features=768, bias=True)
                )
                (key): GraphModule(
                  (module): Linear(in_features=768, out_features=768, bias=True)
                )
                (value): GraphModule(
                  (module): Linear(in_features=768, out_features=768, bias=True)
                )
                (dropout): Dropout(p=0.1, inplace=False)
              )
              (output): GraphModule(
                (dense): Linear(in_features=768, out_features=768, bias=True)
                (dropout): Dropout(p=0.1, inplace=False)
                (LayerNorm): LayerNorm((768,), eps=1e-12, elementwise_affine=True)
              )
            )
            (intermediate): GraphModule(
              (dense): Linear(in_features=768, out_features=3072, bias=True)
            )
            (output): GraphModule(
              (dense): Linear(in_features=3072, out_features=768, bias=True)
              (dropout): Dropout(p=0.1, inplace=False)
              (LayerNorm): LayerNorm((768,), eps=1e-12, elementwise_affine=True)
            )
          )
          (3): BertLayer(
            (attention): BertAttention(
              (self): BertSelfAttention(
                (query): GraphModule(
                  (module): Linear(in_features=768, out_features=768, bias=True)
                )
                (key): GraphModule(
                  (module): Linear(in_features=768, out_features=768, bias=True)
                )
                (value): GraphModule(
                  (module): Linear(in_features=768, out_features=768, bias=True)
                )
                (dropout): Dropout(p=0.1, inplace=False)
              )
              (output): GraphModule(
                (dense): Linear(in_features=768, out_features=768, bias=True)
                (dropout): Dropout(p=0.1, inplace=False)
                (LayerNorm): LayerNorm((768,), eps=1e-12, elementwise_affine=True)
              )
            )
            (intermediate): GraphModule(
              (dense): Linear(in_features=768, out_features=3072, bias=True)
            )
            (output): GraphModule(
              (dense): Linear(in_features=3072, out_features=768, bias=True)
              (dropout): Dropout(p=0.1, inplace=False)
              (LayerNorm): LayerNorm((768,), eps=1e-12, elementwise_affine=True)
            )
          )
          (4): BertLayer(
            (attention): BertAttention(
              (self): BertSelfAttention(
                (query): GraphModule(
                  (module): Linear(in_features=768, out_features=768, bias=True)
                )
                (key): GraphModule(
                  (module): Linear(in_features=768, out_features=768, bias=True)
                )
                (value): GraphModule(
                  (module): Linear(in_features=768, out_features=768, bias=True)
                )
                (dropout): Dropout(p=0.1, inplace=False)
              )
              (output): GraphModule(
                (dense): Linear(in_features=768, out_features=768, bias=True)
                (dropout): Dropout(p=0.1, inplace=False)
                (LayerNorm): LayerNorm((768,), eps=1e-12, elementwise_affine=True)
              )
            )
            (intermediate): GraphModule(
              (dense): Linear(in_features=768, out_features=3072, bias=True)
            )
            (output): GraphModule(
              (dense): Linear(in_features=3072, out_features=768, bias=True)
              (dropout): Dropout(p=0.1, inplace=False)
              (LayerNorm): LayerNorm((768,), eps=1e-12, elementwise_affine=True)
            )
          )
          (5): BertLayer(
            (attention): BertAttention(
              (self): BertSelfAttention(
                (query): GraphModule(
                  (module): Linear(in_features=768, out_features=768, bias=True)
                )
                (key): GraphModule(
                  (module): Linear(in_features=768, out_features=768, bias=True)
                )
                (value): GraphModule(
                  (module): Linear(in_features=768, out_features=768, bias=True)
                )
                (dropout): Dropout(p=0.1, inplace=False)
              )
              (output): GraphModule(
                (dense): Linear(in_features=768, out_features=768, bias=True)
                (dropout): Dropout(p=0.1, inplace=False)
                (LayerNorm): LayerNorm((768,), eps=1e-12, elementwise_affine=True)
              )
            )
            (intermediate): GraphModule(
              (dense): Linear(in_features=768, out_features=3072, bias=True)
            )
            (output): GraphModule(
              (dense): Linear(in_features=3072, out_features=768, bias=True)
              (dropout): Dropout(p=0.1, inplace=False)
              (LayerNorm): LayerNorm((768,), eps=1e-12, elementwise_affine=True)
            )
          )
          (6): BertLayer(
            (attention): BertAttention(
              (self): BertSelfAttention(
                (query): GraphModule(
                  (module): Linear(in_features=768, out_features=768, bias=True)
                )
                (key): GraphModule(
                  (module): Linear(in_features=768, out_features=768, bias=True)
                )
                (value): GraphModule(
                  (module): Linear(in_features=768, out_features=768, bias=True)
                )
                (dropout): Dropout(p=0.1, inplace=False)
              )
              (output): GraphModule(
                (dense): Linear(in_features=768, out_features=768, bias=True)
                (dropout): Dropout(p=0.1, inplace=False)
                (LayerNorm): LayerNorm((768,), eps=1e-12, elementwise_affine=True)
              )
            )
            (intermediate): GraphModule(
              (dense): Linear(in_features=768, out_features=3072, bias=True)
            )
            (output): GraphModule(
              (dense): Linear(in_features=3072, out_features=768, bias=True)
              (dropout): Dropout(p=0.1, inplace=False)
              (LayerNorm): LayerNorm((768,), eps=1e-12, elementwise_affine=True)
            )
          )
          (7): BertLayer(
            (attention): BertAttention(
              (self): BertSelfAttention(
                (query): GraphModule(
                  (module): Linear(in_features=768, out_features=768, bias=True)
                )
                (key): GraphModule(
                  (module): Linear(in_features=768, out_features=768, bias=True)
                )
                (value): GraphModule(
                  (module): Linear(in_features=768, out_features=768, bias=True)
                )
                (dropout): Dropout(p=0.1, inplace=False)
              )
              (output): GraphModule(
                (dense): Linear(in_features=768, out_features=768, bias=True)
                (dropout): Dropout(p=0.1, inplace=False)
                (LayerNorm): LayerNorm((768,), eps=1e-12, elementwise_affine=True)
              )
            )
            (intermediate): GraphModule(
              (dense): Linear(in_features=768, out_features=3072, bias=True)
            )
            (output): GraphModule(
              (dense): Linear(in_features=3072, out_features=768, bias=True)
              (dropout): Dropout(p=0.1, inplace=False)
              (LayerNorm): LayerNorm((768,), eps=1e-12, elementwise_affine=True)
            )
          )
          (8): BertLayer(
            (attention): BertAttention(
              (self): BertSelfAttention(
                (query): GraphModule(
                  (module): Linear(in_features=768, out_features=768, bias=True)
                )
                (key): GraphModule(
                  (module): Linear(in_features=768, out_features=768, bias=True)
                )
                (value): GraphModule(
                  (module): Linear(in_features=768, out_features=768, bias=True)
                )
                (dropout): Dropout(p=0.1, inplace=False)
              )
              (output): GraphModule(
                (dense): Linear(in_features=768, out_features=768, bias=True)
                (dropout): Dropout(p=0.1, inplace=False)
                (LayerNorm): LayerNorm((768,), eps=1e-12, elementwise_affine=True)
              )
            )
            (intermediate): GraphModule(
              (dense): Linear(in_features=768, out_features=3072, bias=True)
            )
            (output): GraphModule(
              (dense): Linear(in_features=3072, out_features=768, bias=True)
              (dropout): Dropout(p=0.1, inplace=False)
              (LayerNorm): LayerNorm((768,), eps=1e-12, elementwise_affine=True)
            )
          )
          (9): BertLayer(
            (attention): BertAttention(
              (self): BertSelfAttention(
                (query): GraphModule(
                  (module): Linear(in_features=768, out_features=768, bias=True)
                )
                (key): GraphModule(
                  (module): Linear(in_features=768, out_features=768, bias=True)
                )
                (value): GraphModule(
                  (module): Linear(in_features=768, out_features=768, bias=True)
                )
                (dropout): Dropout(p=0.1, inplace=False)
              )
              (output): GraphModule(
                (dense): Linear(in_features=768, out_features=768, bias=True)
                (dropout): Dropout(p=0.1, inplace=False)
                (LayerNorm): LayerNorm((768,), eps=1e-12, elementwise_affine=True)
              )
            )
            (intermediate): GraphModule(
              (dense): Linear(in_features=768, out_features=3072, bias=True)
            )
            (output): GraphModule(
              (dense): Linear(in_features=3072, out_features=768, bias=True)
              (dropout): Dropout(p=0.1, inplace=False)
              (LayerNorm): LayerNorm((768,), eps=1e-12, elementwise_affine=True)
            )
          )
          (10): BertLayer(
            (attention): BertAttention(
              (self): BertSelfAttention(
                (query): GraphModule(
                  (module): Linear(in_features=768, out_features=768, bias=True)
                )
                (key): GraphModule(
                  (module): Linear(in_features=768, out_features=768, bias=True)
                )
                (value): GraphModule(
                  (module): Linear(in_features=768, out_features=768, bias=True)
                )
                (dropout): Dropout(p=0.1, inplace=False)
              )
              (output): GraphModule(
                (dense): Linear(in_features=768, out_features=768, bias=True)
                (dropout): Dropout(p=0.1, inplace=False)
                (LayerNorm): LayerNorm((768,), eps=1e-12, elementwise_affine=True)
              )
            )
            (intermediate): GraphModule(
              (dense): Linear(in_features=768, out_features=3072, bias=True)
            )
            (output): GraphModule(
              (dense): Linear(in_features=3072, out_features=768, bias=True)
              (dropout): Dropout(p=0.1, inplace=False)
              (LayerNorm): LayerNorm((768,), eps=1e-12, elementwise_affine=True)
            )
          )
          (11): BertLayer(
            (attention): BertAttention(
              (self): BertSelfAttention(
                (query): GraphModule(
                  (module): Linear(in_features=768, out_features=768, bias=True)
                )
                (key): GraphModule(
                  (module): Linear(in_features=768, out_features=768, bias=True)
                )
                (value): GraphModule(
                  (module): Linear(in_features=768, out_features=768, bias=True)
                )
                (dropout): Dropout(p=0.1, inplace=False)
              )
              (output): GraphModule(
                (dense): Linear(in_features=768, out_features=768, bias=True)
                (dropout): Dropout(p=0.1, inplace=False)
                (LayerNorm): LayerNorm((768,), eps=1e-12, elementwise_affine=True)
              )
            )
            (intermediate): GraphModule(
              (dense): Linear(in_features=768, out_features=3072, bias=True)
            )
            (output): GraphModule(
              (dense): Linear(in_features=3072, out_features=768, bias=True)
              (dropout): Dropout(p=0.1, inplace=False)
              (LayerNorm): LayerNorm((768,), eps=1e-12, elementwise_affine=True)
            )
          )
        )
      )
      (pooler): GraphModule(
        (dense): Linear(in_features=768, out_features=768, bias=True)
        (activation): Tanh()
      )
    )
    (dropout): Dropout(p=0.1, inplace=False)
    (classifier): GraphModule(
      (module): Linear(in_features=768, out_features=1, bias=True)
    )
  )
)2022-04-19 15:42:38 [INFO] |*******Mixed Precision Statistics*******|
2022-04-19 15:42:38 [INFO] +--------------+---------+-------+-------+
2022-04-19 15:42:38 [INFO] |   Op Type    |  Total  |  INT8 |  FP32 |
2022-04-19 15:42:38 [INFO] +--------------+---------+-------+-------+
2022-04-19 15:42:38 [INFO] |  Embedding   |    3    |   1   |   2   |
…
2022-04-19 15:42:40 [INFO]     'eval_steps_per_second': 7.305
2022-04-19 15:42:40 [INFO] }
2022-04-19 15:42:40 [INFO] metric: 0.7599999904632568
2022-04-19 15:42:40 [INFO] Throughput: 56.19 samples/sec
2022-04-19 15:42:40 [INFO] Fx trace of the entire model failed, We will conduct auto quantization
2022-04-19 15:42:40 [WARNING] Please note that calibration sampling size 100 isn't divisible exactly by batch size 8. So the real sampling size is 104.
=========== asym_float placeholder
PyTorchFXModel(
  (_model): BertForMultipleChoice(
    (bert): BertModel(
      (embeddings): BertEmbeddings(
        (word_embeddings): GraphModule(
          (module): Embedding(30522, 768, padding_idx=0)
        )
        (position_embeddings): GraphModule(
          (module): QuantizedEmbedding(num_embeddings=512, embedding_dim=768, dtype=torch.quint8, qscheme=torch.per_channel_affine_float_qparams)
        )
        (token_type_embeddings): GraphModule(
          (module): Embedding(2, 768)
        )
        (LayerNorm): GraphModule(
          (module): LayerNorm((768,), eps=1e-12, elementwise_affine=True)
        )
        (dropout): Dropout(p=0.1, inplace=False)
      )
      (encoder): BertEncoder(
        (layer): ModuleList(
          (0): BertLayer(
            (attention): BertAttention(
              (self): BertSelfAttention(
                (query): GraphModule(
                  (module): Linear(in_features=768, out_features=768, bias=True)
                )
                (key): GraphModule(
                  (module): Linear(in_features=768, out_features=768, bias=True)
                )
                (value): GraphModule(
                  (module): Linear(in_features=768, out_features=768, bias=True)
                )
                (dropout): Dropout(p=0.1, inplace=False)
              )
              (output): GraphModule(
                (dense): Linear(in_features=768, out_features=768, bias=True)
                (dropout): Dropout(p=0.1, inplace=False)
                (LayerNorm): LayerNorm((768,), eps=1e-12, elementwise_affine=True)
              )
            )
            (intermediate): GraphModule(
              (dense): Linear(in_features=768, out_features=3072, bias=True)
            )
            (output): GraphModule(
              (dense): Linear(in_features=3072, out_features=768, bias=True)
              (dropout): Dropout(p=0.1, inplace=False)
              (LayerNorm): LayerNorm((768,), eps=1e-12, elementwise_affine=True)
            )
          )
          (1): BertLayer(
            (attention): BertAttention(
              (self): BertSelfAttention(
                (query): GraphModule(
                  (module): Linear(in_features=768, out_features=768, bias=True)
                )
                (key): GraphModule(
                  (module): Linear(in_features=768, out_features=768, bias=True)
                )
                (value): GraphModule(
                  (module): Linear(in_features=768, out_features=768, bias=True)
                )
                (dropout): Dropout(p=0.1, inplace=False)
              )
              (output): GraphModule(
                (dense): Linear(in_features=768, out_features=768, bias=True)
                (dropout): Dropout(p=0.1, inplace=False)
                (LayerNorm): LayerNorm((768,), eps=1e-12, elementwise_affine=True)
              )
            )
            (intermediate): GraphModule(
              (dense): Linear(in_features=768, out_features=3072, bias=True)
            )
            (output): GraphModule(
              (dense): Linear(in_features=3072, out_features=768, bias=True)
              (dropout): Dropout(p=0.1, inplace=False)
              (LayerNorm): LayerNorm((768,), eps=1e-12, elementwise_affine=True)
            )
          )
          (2): BertLayer(
            (attention): BertAttention(
              (self): BertSelfAttention(
                (query): GraphModule(
                  (module): Linear(in_features=768, out_features=768, bias=True)
                )
                (key): GraphModule(
                  (module): Linear(in_features=768, out_features=768, bias=True)
                )
                (value): GraphModule(
                  (module): Linear(in_features=768, out_features=768, bias=True)
                )
                (dropout): Dropout(p=0.1, inplace=False)
              )
              (output): GraphModule(
                (dense): Linear(in_features=768, out_features=768, bias=True)
                (dropout): Dropout(p=0.1, inplace=False)
                (LayerNorm): LayerNorm((768,), eps=1e-12, elementwise_affine=True)
              )
            )
            (intermediate): GraphModule(
              (dense): Linear(in_features=768, out_features=3072, bias=True)
            )
            (output): GraphModule(
              (dense): Linear(in_features=3072, out_features=768, bias=True)
              (dropout): Dropout(p=0.1, inplace=False)
              (LayerNorm): LayerNorm((768,), eps=1e-12, elementwise_affine=True)
            )
          )
          (3): BertLayer(
            (attention): BertAttention(
              (self): BertSelfAttention(
                (query): GraphModule(
                  (module): Linear(in_features=768, out_features=768, bias=True)
                )
                (key): GraphModule(
                  (module): Linear(in_features=768, out_features=768, bias=True)
                )
                (value): GraphModule(
                  (module): Linear(in_features=768, out_features=768, bias=True)
                )
                (dropout): Dropout(p=0.1, inplace=False)
              )
              (output): GraphModule(
                (dense): Linear(in_features=768, out_features=768, bias=True)
                (dropout): Dropout(p=0.1, inplace=False)
                (LayerNorm): LayerNorm((768,), eps=1e-12, elementwise_affine=True)
              )
            )
            (intermediate): GraphModule(
              (dense): Linear(in_features=768, out_features=3072, bias=True)
            )
            (output): GraphModule(
              (dense): Linear(in_features=3072, out_features=768, bias=True)
              (dropout): Dropout(p=0.1, inplace=False)
              (LayerNorm): LayerNorm((768,), eps=1e-12, elementwise_affine=True)
            )
          )
          (4): BertLayer(
            (attention): BertAttention(
              (self): BertSelfAttention(
                (query): GraphModule(
                  (module): Linear(in_features=768, out_features=768, bias=True)
                )
                (key): GraphModule(
                  (module): Linear(in_features=768, out_features=768, bias=True)
                )
                (value): GraphModule(
                  (module): Linear(in_features=768, out_features=768, bias=True)
                )
                (dropout): Dropout(p=0.1, inplace=False)
              )
              (output): GraphModule(
                (dense): Linear(in_features=768, out_features=768, bias=True)
                (dropout): Dropout(p=0.1, inplace=False)
                (LayerNorm): LayerNorm((768,), eps=1e-12, elementwise_affine=True)
              )
            )
            (intermediate): GraphModule(
              (dense): Linear(in_features=768, out_features=3072, bias=True)
            )
            (output): GraphModule(
              (dense): Linear(in_features=3072, out_features=768, bias=True)
              (dropout): Dropout(p=0.1, inplace=False)
              (LayerNorm): LayerNorm((768,), eps=1e-12, elementwise_affine=True)
            )
          )
          (5): BertLayer(
            (attention): BertAttention(
              (self): BertSelfAttention(
                (query): GraphModule(
                  (module): Linear(in_features=768, out_features=768, bias=True)
                )
                (key): GraphModule(
                  (module): Linear(in_features=768, out_features=768, bias=True)
                )
                (value): GraphModule(
                  (module): Linear(in_features=768, out_features=768, bias=True)
                )
                (dropout): Dropout(p=0.1, inplace=False)
              )
              (output): GraphModule(
                (dense): Linear(in_features=768, out_features=768, bias=True)
                (dropout): Dropout(p=0.1, inplace=False)
                (LayerNorm): LayerNorm((768,), eps=1e-12, elementwise_affine=True)
              )
            )
            (intermediate): GraphModule(
              (dense): Linear(in_features=768, out_features=3072, bias=True)
            )
            (output): GraphModule(
              (dense): Linear(in_features=3072, out_features=768, bias=True)
              (dropout): Dropout(p=0.1, inplace=False)
              (LayerNorm): LayerNorm((768,), eps=1e-12, elementwise_affine=True)
            )
          )
          (6): BertLayer(
            (attention): BertAttention(
              (self): BertSelfAttention(
                (query): GraphModule(
                  (module): Linear(in_features=768, out_features=768, bias=True)
                )
                (key): GraphModule(
                  (module): Linear(in_features=768, out_features=768, bias=True)
                )
                (value): GraphModule(
                  (module): Linear(in_features=768, out_features=768, bias=True)
                )
                (dropout): Dropout(p=0.1, inplace=False)
              )
              (output): GraphModule(
                (dense): Linear(in_features=768, out_features=768, bias=True)
                (dropout): Dropout(p=0.1, inplace=False)
                (LayerNorm): LayerNorm((768,), eps=1e-12, elementwise_affine=True)
              )
            )
            (intermediate): GraphModule(
              (dense): Linear(in_features=768, out_features=3072, bias=True)
            )
            (output): GraphModule(
              (dense): Linear(in_features=3072, out_features=768, bias=True)
              (dropout): Dropout(p=0.1, inplace=False)
              (LayerNorm): LayerNorm((768,), eps=1e-12, elementwise_affine=True)
            )
          )
          (7): BertLayer(
            (attention): BertAttention(
              (self): BertSelfAttention(
                (query): GraphModule(
                  (module): Linear(in_features=768, out_features=768, bias=True)
                )
                (key): GraphModule(
                  (module): Linear(in_features=768, out_features=768, bias=True)
                )
                (value): GraphModule(
                  (module): Linear(in_features=768, out_features=768, bias=True)
                )
                (dropout): Dropout(p=0.1, inplace=False)
              )
              (output): GraphModule(
                (dense): Linear(in_features=768, out_features=768, bias=True)
                (dropout): Dropout(p=0.1, inplace=False)
                (LayerNorm): LayerNorm((768,), eps=1e-12, elementwise_affine=True)
              )
            )
            (intermediate): GraphModule(
              (dense): Linear(in_features=768, out_features=3072, bias=True)
            )
            (output): GraphModule(
              (dense): Linear(in_features=3072, out_features=768, bias=True)
              (dropout): Dropout(p=0.1, inplace=False)
              (LayerNorm): LayerNorm((768,), eps=1e-12, elementwise_affine=True)
            )
          )
          (8): BertLayer(
            (attention): BertAttention(
              (self): BertSelfAttention(
                (query): GraphModule(
                  (module): Linear(in_features=768, out_features=768, bias=True)
                )
                (key): GraphModule(
                  (module): Linear(in_features=768, out_features=768, bias=True)
                )
                (value): GraphModule(
                  (module): Linear(in_features=768, out_features=768, bias=True)
                )
                (dropout): Dropout(p=0.1, inplace=False)
              )
              (output): GraphModule(
                (dense): Linear(in_features=768, out_features=768, bias=True)
                (dropout): Dropout(p=0.1, inplace=False)
                (LayerNorm): LayerNorm((768,), eps=1e-12, elementwise_affine=True)
              )
            )
            (intermediate): GraphModule(
              (dense): Linear(in_features=768, out_features=3072, bias=True)
            )
            (output): GraphModule(
              (dense): Linear(in_features=3072, out_features=768, bias=True)
              (dropout): Dropout(p=0.1, inplace=False)
              (LayerNorm): LayerNorm((768,), eps=1e-12, elementwise_affine=True)
            )
          )
          (9): BertLayer(
            (attention): BertAttention(
              (self): BertSelfAttention(
                (query): GraphModule(
                  (module): Linear(in_features=768, out_features=768, bias=True)
                )
                (key): GraphModule(
                  (module): Linear(in_features=768, out_features=768, bias=True)
                )
                (value): GraphModule(
                  (module): Linear(in_features=768, out_features=768, bias=True)
                )
                (dropout): Dropout(p=0.1, inplace=False)
              )
              (output): GraphModule(
                (dense): Linear(in_features=768, out_features=768, bias=True)
                (dropout): Dropout(p=0.1, inplace=False)
                (LayerNorm): LayerNorm((768,), eps=1e-12, elementwise_affine=True)
              )
            )
            (intermediate): GraphModule(
              (dense): Linear(in_features=768, out_features=3072, bias=True)
            )
            (output): GraphModule(
              (dense): Linear(in_features=3072, out_features=768, bias=True)
              (dropout): Dropout(p=0.1, inplace=False)
              (LayerNorm): LayerNorm((768,), eps=1e-12, elementwise_affine=True)
            )
          )
          (10): BertLayer(
            (attention): BertAttention(
              (self): BertSelfAttention(
                (query): GraphModule(
                  (module): Linear(in_features=768, out_features=768, bias=True)
                )
                (key): GraphModule(
                  (module): Linear(in_features=768, out_features=768, bias=True)
                )
                (value): GraphModule(
                  (module): Linear(in_features=768, out_features=768, bias=True)
                )
                (dropout): Dropout(p=0.1, inplace=False)
              )
              (output): GraphModule(
                (dense): Linear(in_features=768, out_features=768, bias=True)
                (dropout): Dropout(p=0.1, inplace=False)
                (LayerNorm): LayerNorm((768,), eps=1e-12, elementwise_affine=True)
              )
            )
            (intermediate): GraphModule(
              (dense): Linear(in_features=768, out_features=3072, bias=True)
            )
            (output): GraphModule(
              (dense): Linear(in_features=3072, out_features=768, bias=True)
              (dropout): Dropout(p=0.1, inplace=False)
              (LayerNorm): LayerNorm((768,), eps=1e-12, elementwise_affine=True)
            )
          )
          (11): BertLayer(
            (attention): BertAttention(
              (self): BertSelfAttention(
                (query): GraphModule(
                  (module): Linear(in_features=768, out_features=768, bias=True)
                )
                (key): GraphModule(
                  (module): Linear(in_features=768, out_features=768, bias=True)
                )
                (value): GraphModule(
                  (module): Linear(in_features=768, out_features=768, bias=True)
                )
                (dropout): Dropout(p=0.1, inplace=False)
              )
              (output): GraphModule(
                (dense): Linear(in_features=768, out_features=768, bias=True)
                (dropout): Dropout(p=0.1, inplace=False)
                (LayerNorm): LayerNorm((768,), eps=1e-12, elementwise_affine=True)
              )
            )
            (intermediate): GraphModule(
              (dense): Linear(in_features=768, out_features=3072, bias=True)
            )
            (output): GraphModule(
              (dense): Linear(in_features=3072, out_features=768, bias=True)
              (dropout): Dropout(p=0.1, inplace=False)
              (LayerNorm): LayerNorm((768,), eps=1e-12, elementwise_affine=True)
            )
          )
        )
      )
      (pooler): GraphModule(
        (dense): Linear(in_features=768, out_features=768, bias=True)
        (activation): Tanh()
      )
    )
    (dropout): Dropout(p=0.1, inplace=False)
    (classifier): GraphModule(
      (module): Linear(in_features=768, out_features=1, bias=True)
    )
  )
)2022-04-19 15:42:42 [INFO] |*******Mixed Precision Statistics*******|
2022-04-19 15:42:42 [INFO] +--------------+---------+-------+-------+
2022-04-19 15:42:42 [INFO] |   Op Type    |  Total  |  INT8 |  FP32 |
2022-04-19 15:42:42 [INFO] +--------------+---------+-------+-------+
2022-04-19 15:42:42 [INFO] |  Embedding   |    3    |   1   |   2   |
…
2022-04-19 15:42:44 [INFO]     'eval_steps_per_second': 7.309
2022-04-19 15:42:44 [INFO] }
2022-04-19 15:42:44 [INFO] metric: 0.7699999809265137
2022-04-19 15:42:44 [INFO] Throughput: 56.223 samples/sec
2022-04-19 15:42:44 [INFO] Fx trace of the entire model failed, We will conduct auto quantization
2022-04-19 15:42:44 [WARNING] Please note that calibration sampling size 100 isn't divisible exactly by batch size 8. So the real sampling size is 104.
=========== asym_float placeholder
PyTorchFXModel(
  (_model): BertForMultipleChoice(
    (bert): BertModel(
      (embeddings): BertEmbeddings(
        (word_embeddings): GraphModule(
          (module): Embedding(30522, 768, padding_idx=0)
        )
        (position_embeddings): GraphModule(
          (module): Embedding(512, 768)
        )
        (token_type_embeddings): GraphModule(
          (module): QuantizedEmbedding(num_embeddings=2, embedding_dim=768, dtype=torch.quint8, qscheme=torch.per_channel_affine_float_qparams)
        )
        (LayerNorm): GraphModule(
          (module): LayerNorm((768,), eps=1e-12, elementwise_affine=True)
        )
        (dropout): Dropout(p=0.1, inplace=False)
      )
      (encoder): BertEncoder(
        (layer): ModuleList(
          (0): BertLayer(
            (attention): BertAttention(
              (self): BertSelfAttention(
                (query): GraphModule(
                  (module): Linear(in_features=768, out_features=768, bias=True)
                )
                (key): GraphModule(
                  (module): Linear(in_features=768, out_features=768, bias=True)
                )
                (value): GraphModule(
                  (module): Linear(in_features=768, out_features=768, bias=True)
                )
                (dropout): Dropout(p=0.1, inplace=False)
              )
              (output): GraphModule(
                (dense): Linear(in_features=768, out_features=768, bias=True)
                (dropout): Dropout(p=0.1, inplace=False)
                (LayerNorm): LayerNorm((768,), eps=1e-12, elementwise_affine=True)
              )
            )
            (intermediate): GraphModule(
              (dense): Linear(in_features=768, out_features=3072, bias=True)
            )
            (output): GraphModule(
              (dense): Linear(in_features=3072, out_features=768, bias=True)
              (dropout): Dropout(p=0.1, inplace=False)
              (LayerNorm): LayerNorm((768,), eps=1e-12, elementwise_affine=True)
            )
          )
          (1): BertLayer(
            (attention): BertAttention(
              (self): BertSelfAttention(
                (query): GraphModule(
                  (module): Linear(in_features=768, out_features=768, bias=True)
                )
                (key): GraphModule(
                  (module): Linear(in_features=768, out_features=768, bias=True)
                )
                (value): GraphModule(
                  (module): Linear(in_features=768, out_features=768, bias=True)
                )
                (dropout): Dropout(p=0.1, inplace=False)
              )
              (output): GraphModule(
                (dense): Linear(in_features=768, out_features=768, bias=True)
                (dropout): Dropout(p=0.1, inplace=False)
                (LayerNorm): LayerNorm((768,), eps=1e-12, elementwise_affine=True)
              )
            )
            (intermediate): GraphModule(
              (dense): Linear(in_features=768, out_features=3072, bias=True)
            )
            (output): GraphModule(
              (dense): Linear(in_features=3072, out_features=768, bias=True)
              (dropout): Dropout(p=0.1, inplace=False)
              (LayerNorm): LayerNorm((768,), eps=1e-12, elementwise_affine=True)
            )
          )
          (2): BertLayer(
            (attention): BertAttention(
              (self): BertSelfAttention(
                (query): GraphModule(
                  (module): Linear(in_features=768, out_features=768, bias=True)
                )
                (key): GraphModule(
                  (module): Linear(in_features=768, out_features=768, bias=True)
                )
                (value): GraphModule(
                  (module): Linear(in_features=768, out_features=768, bias=True)
                )
                (dropout): Dropout(p=0.1, inplace=False)
              )
              (output): GraphModule(
                (dense): Linear(in_features=768, out_features=768, bias=True)
                (dropout): Dropout(p=0.1, inplace=False)
                (LayerNorm): LayerNorm((768,), eps=1e-12, elementwise_affine=True)
              )
            )
            (intermediate): GraphModule(
              (dense): Linear(in_features=768, out_features=3072, bias=True)
            )
            (output): GraphModule(
              (dense): Linear(in_features=3072, out_features=768, bias=True)
              (dropout): Dropout(p=0.1, inplace=False)
              (LayerNorm): LayerNorm((768,), eps=1e-12, elementwise_affine=True)
            )
          )
          (3): BertLayer(
            (attention): BertAttention(
              (self): BertSelfAttention(
                (query): GraphModule(
                  (module): Linear(in_features=768, out_features=768, bias=True)
                )
                (key): GraphModule(
                  (module): Linear(in_features=768, out_features=768, bias=True)
                )
                (value): GraphModule(
                  (module): Linear(in_features=768, out_features=768, bias=True)
                )
                (dropout): Dropout(p=0.1, inplace=False)
              )
              (output): GraphModule(
                (dense): Linear(in_features=768, out_features=768, bias=True)
                (dropout): Dropout(p=0.1, inplace=False)
                (LayerNorm): LayerNorm((768,), eps=1e-12, elementwise_affine=True)
              )
            )
            (intermediate): GraphModule(
              (dense): Linear(in_features=768, out_features=3072, bias=True)
            )
            (output): GraphModule(
              (dense): Linear(in_features=3072, out_features=768, bias=True)
              (dropout): Dropout(p=0.1, inplace=False)
              (LayerNorm): LayerNorm((768,), eps=1e-12, elementwise_affine=True)
            )
          )
          (4): BertLayer(
            (attention): BertAttention(
              (self): BertSelfAttention(
                (query): GraphModule(
                  (module): Linear(in_features=768, out_features=768, bias=True)
                )
                (key): GraphModule(
                  (module): Linear(in_features=768, out_features=768, bias=True)
                )
                (value): GraphModule(
                  (module): Linear(in_features=768, out_features=768, bias=True)
                )
                (dropout): Dropout(p=0.1, inplace=False)
              )
              (output): GraphModule(
                (dense): Linear(in_features=768, out_features=768, bias=True)
                (dropout): Dropout(p=0.1, inplace=False)
                (LayerNorm): LayerNorm((768,), eps=1e-12, elementwise_affine=True)
              )
            )
            (intermediate): GraphModule(
              (dense): Linear(in_features=768, out_features=3072, bias=True)
            )
            (output): GraphModule(
              (dense): Linear(in_features=3072, out_features=768, bias=True)
              (dropout): Dropout(p=0.1, inplace=False)
              (LayerNorm): LayerNorm((768,), eps=1e-12, elementwise_affine=True)
            )
          )
          (5): BertLayer(
            (attention): BertAttention(
              (self): BertSelfAttention(
                (query): GraphModule(
                  (module): Linear(in_features=768, out_features=768, bias=True)
                )
                (key): GraphModule(
                  (module): Linear(in_features=768, out_features=768, bias=True)
                )
                (value): GraphModule(
                  (module): Linear(in_features=768, out_features=768, bias=True)
                )
                (dropout): Dropout(p=0.1, inplace=False)
              )
              (output): GraphModule(
                (dense): Linear(in_features=768, out_features=768, bias=True)
                (dropout): Dropout(p=0.1, inplace=False)
                (LayerNorm): LayerNorm((768,), eps=1e-12, elementwise_affine=True)
              )
            )
            (intermediate): GraphModule(
              (dense): Linear(in_features=768, out_features=3072, bias=True)
            )
            (output): GraphModule(
              (dense): Linear(in_features=3072, out_features=768, bias=True)
              (dropout): Dropout(p=0.1, inplace=False)
              (LayerNorm): LayerNorm((768,), eps=1e-12, elementwise_affine=True)
            )
          )
          (6): BertLayer(
            (attention): BertAttention(
              (self): BertSelfAttention(
                (query): GraphModule(
                  (module): Linear(in_features=768, out_features=768, bias=True)
                )
                (key): GraphModule(
                  (module): Linear(in_features=768, out_features=768, bias=True)
                )
                (value): GraphModule(
                  (module): Linear(in_features=768, out_features=768, bias=True)
                )
                (dropout): Dropout(p=0.1, inplace=False)
              )
              (output): GraphModule(
                (dense): Linear(in_features=768, out_features=768, bias=True)
                (dropout): Dropout(p=0.1, inplace=False)
                (LayerNorm): LayerNorm((768,), eps=1e-12, elementwise_affine=True)
              )
            )
            (intermediate): GraphModule(
              (dense): Linear(in_features=768, out_features=3072, bias=True)
            )
            (output): GraphModule(
              (dense): Linear(in_features=3072, out_features=768, bias=True)
              (dropout): Dropout(p=0.1, inplace=False)
              (LayerNorm): LayerNorm((768,), eps=1e-12, elementwise_affine=True)
            )
          )
          (7): BertLayer(
            (attention): BertAttention(
              (self): BertSelfAttention(
                (query): GraphModule(
                  (module): Linear(in_features=768, out_features=768, bias=True)
                )
                (key): GraphModule(
                  (module): Linear(in_features=768, out_features=768, bias=True)
                )
                (value): GraphModule(
                  (module): Linear(in_features=768, out_features=768, bias=True)
                )
                (dropout): Dropout(p=0.1, inplace=False)
              )
              (output): GraphModule(
                (dense): Linear(in_features=768, out_features=768, bias=True)
                (dropout): Dropout(p=0.1, inplace=False)
                (LayerNorm): LayerNorm((768,), eps=1e-12, elementwise_affine=True)
              )
            )
            (intermediate): GraphModule(
              (dense): Linear(in_features=768, out_features=3072, bias=True)
            )
            (output): GraphModule(
              (dense): Linear(in_features=3072, out_features=768, bias=True)
              (dropout): Dropout(p=0.1, inplace=False)
              (LayerNorm): LayerNorm((768,), eps=1e-12, elementwise_affine=True)
            )
          )
          (8): BertLayer(
            (attention): BertAttention(
              (self): BertSelfAttention(
                (query): GraphModule(
                  (module): Linear(in_features=768, out_features=768, bias=True)
                )
                (key): GraphModule(
                  (module): Linear(in_features=768, out_features=768, bias=True)
                )
                (value): GraphModule(
                  (module): Linear(in_features=768, out_features=768, bias=True)
                )
                (dropout): Dropout(p=0.1, inplace=False)
              )
              (output): GraphModule(
                (dense): Linear(in_features=768, out_features=768, bias=True)
                (dropout): Dropout(p=0.1, inplace=False)
                (LayerNorm): LayerNorm((768,), eps=1e-12, elementwise_affine=True)
              )
            )
            (intermediate): GraphModule(
              (dense): Linear(in_features=768, out_features=3072, bias=True)
            )
            (output): GraphModule(
              (dense): Linear(in_features=3072, out_features=768, bias=True)
              (dropout): Dropout(p=0.1, inplace=False)
              (LayerNorm): LayerNorm((768,), eps=1e-12, elementwise_affine=True)
            )
          )
          (9): BertLayer(
            (attention): BertAttention(
              (self): BertSelfAttention(
                (query): GraphModule(
                  (module): Linear(in_features=768, out_features=768, bias=True)
                )
                (key): GraphModule(
                  (module): Linear(in_features=768, out_features=768, bias=True)
                )
                (value): GraphModule(
                  (module): Linear(in_features=768, out_features=768, bias=True)
                )
                (dropout): Dropout(p=0.1, inplace=False)
              )
              (output): GraphModule(
                (dense): Linear(in_features=768, out_features=768, bias=True)
                (dropout): Dropout(p=0.1, inplace=False)
                (LayerNorm): LayerNorm((768,), eps=1e-12, elementwise_affine=True)
              )
            )
            (intermediate): GraphModule(
              (dense): Linear(in_features=768, out_features=3072, bias=True)
            )
            (output): GraphModule(
              (dense): Linear(in_features=3072, out_features=768, bias=True)
              (dropout): Dropout(p=0.1, inplace=False)
              (LayerNorm): LayerNorm((768,), eps=1e-12, elementwise_affine=True)
            )
          )
          (10): BertLayer(
            (attention): BertAttention(
              (self): BertSelfAttention(
                (query): GraphModule(
                  (module): Linear(in_features=768, out_features=768, bias=True)
                )
                (key): GraphModule(
                  (module): Linear(in_features=768, out_features=768, bias=True)
                )
                (value): GraphModule(
                  (module): Linear(in_features=768, out_features=768, bias=True)
                )
                (dropout): Dropout(p=0.1, inplace=False)
              )
              (output): GraphModule(
                (dense): Linear(in_features=768, out_features=768, bias=True)
                (dropout): Dropout(p=0.1, inplace=False)
                (LayerNorm): LayerNorm((768,), eps=1e-12, elementwise_affine=True)
              )
            )
            (intermediate): GraphModule(
              (dense): Linear(in_features=768, out_features=3072, bias=True)
            )
            (output): GraphModule(
              (dense): Linear(in_features=3072, out_features=768, bias=True)
              (dropout): Dropout(p=0.1, inplace=False)
              (LayerNorm): LayerNorm((768,), eps=1e-12, elementwise_affine=True)
            )
          )
          (11): BertLayer(
            (attention): BertAttention(
              (self): BertSelfAttention(
                (query): GraphModule(
                  (module): Linear(in_features=768, out_features=768, bias=True)
                )
                (key): GraphModule(
                  (module): Linear(in_features=768, out_features=768, bias=True)
                )
                (value): GraphModule(
                  (module): Linear(in_features=768, out_features=768, bias=True)
                )
                (dropout): Dropout(p=0.1, inplace=False)
              )
              (output): GraphModule(
                (dense): Linear(in_features=768, out_features=768, bias=True)
                (dropout): Dropout(p=0.1, inplace=False)
                (LayerNorm): LayerNorm((768,), eps=1e-12, elementwise_affine=True)
              )
            )
            (intermediate): GraphModule(
              (dense): Linear(in_features=768, out_features=3072, bias=True)
            )
            (output): GraphModule(
              (dense): Linear(in_features=3072, out_features=768, bias=True)
              (dropout): Dropout(p=0.1, inplace=False)
              (LayerNorm): LayerNorm((768,), eps=1e-12, elementwise_affine=True)
            )
          )
        )
      )
      (pooler): GraphModule(
        (dense): Linear(in_features=768, out_features=768, bias=True)
        (activation): Tanh()
      )
    )
    (dropout): Dropout(p=0.1, inplace=False)
    (classifier): GraphModule(
      (module): Linear(in_features=768, out_features=1, bias=True)
    )
  )
)2022-04-19 15:42:47 [INFO] |*******Mixed Precision Statistics*******|
2022-04-19 15:42:47 [INFO] +--------------+---------+-------+-------+
2022-04-19 15:42:47 [INFO] |   Op Type    |  Total  |  INT8 |  FP32 |
2022-04-19 15:42:47 [INFO] +--------------+---------+-------+-------+
2022-04-19 15:42:47 [INFO] |  Embedding   |    3    |   1   |   2   |
…
2022-04-19 15:42:49 [INFO]     'eval_steps_per_second': 6.768
2022-04-19 15:42:49 [INFO] }
2022-04-19 15:42:49 [INFO] metric: 0.7699999809265137
2022-04-19 15:42:49 [INFO] Throughput: 52.059 samples/sec
2022-04-19 15:42:49 [INFO] Fx trace of the entire model failed, We will conduct auto quantization
2022-04-19 15:42:49 [WARNING] Please note that calibration sampling size 100 isn't divisible exactly by batch size 8. So the real sampling size is 104.
=========== asym kl
PyTorchFXModel(
  (_model): BertForMultipleChoice(
    (bert): BertModel(
      (embeddings): BertEmbeddings(
        (word_embeddings): GraphModule(
          (module): Embedding(30522, 768, padding_idx=0)
        )
        (position_embeddings): GraphModule(
          (module): Embedding(512, 768)
        )
        (token_type_embeddings): GraphModule(
          (module): Embedding(2, 768)
        )
        (LayerNorm): GraphModule(
          (module): LayerNorm((768,), eps=1e-12, elementwise_affine=True)
        )
        (dropout): Dropout(p=0.1, inplace=False)
      )
      (encoder): BertEncoder(
        (layer): ModuleList(
          (0): BertLayer(
            (attention): BertAttention(
              (self): BertSelfAttention(
                (query): GraphModule(
                  (module): QuantizedLinear(in_features=768, out_features=768, scale=0.0417059101164341, zero_point=143, qscheme=torch.per_channel_affine)
                )
                (key): GraphModule(
                  (module): Linear(in_features=768, out_features=768, bias=True)
                )
                (value): GraphModule(
                  (module): Linear(in_features=768, out_features=768, bias=True)
                )
                (dropout): Dropout(p=0.1, inplace=False)
              )
              (output): GraphModule(
                (dense): Linear(in_features=768, out_features=768, bias=True)
                (dropout): Dropout(p=0.1, inplace=False)
                (LayerNorm): LayerNorm((768,), eps=1e-12, elementwise_affine=True)
              )
            )
            (intermediate): GraphModule(
              (dense): Linear(in_features=768, out_features=3072, bias=True)
            )
            (output): GraphModule(
              (dense): Linear(in_features=3072, out_features=768, bias=True)
              (dropout): Dropout(p=0.1, inplace=False)
              (LayerNorm): LayerNorm((768,), eps=1e-12, elementwise_affine=True)
            )
          )
          (1): BertLayer(
            (attention): BertAttention(
              (self): BertSelfAttention(
                (query): GraphModule(
                  (module): Linear(in_features=768, out_features=768, bias=True)
                )
                (key): GraphModule(
                  (module): Linear(in_features=768, out_features=768, bias=True)
                )
                (value): GraphModule(
                  (module): Linear(in_features=768, out_features=768, bias=True)
                )
                (dropout): Dropout(p=0.1, inplace=False)
              )
              (output): GraphModule(
                (dense): Linear(in_features=768, out_features=768, bias=True)
                (dropout): Dropout(p=0.1, inplace=False)
                (LayerNorm): LayerNorm((768,), eps=1e-12, elementwise_affine=True)
              )
            )
            (intermediate): GraphModule(
              (dense): Linear(in_features=768, out_features=3072, bias=True)
            )
            (output): GraphModule(
              (dense): Linear(in_features=3072, out_features=768, bias=True)
              (dropout): Dropout(p=0.1, inplace=False)
              (LayerNorm): LayerNorm((768,), eps=1e-12, elementwise_affine=True)
            )
          )
          (2): BertLayer(
            (attention): BertAttention(
              (self): BertSelfAttention(
                (query): GraphModule(
                  (module): Linear(in_features=768, out_features=768, bias=True)
                )
                (key): GraphModule(
                  (module): Linear(in_features=768, out_features=768, bias=True)
                )
                (value): GraphModule(
                  (module): Linear(in_features=768, out_features=768, bias=True)
                )
                (dropout): Dropout(p=0.1, inplace=False)
              )
              (output): GraphModule(
                (dense): Linear(in_features=768, out_features=768, bias=True)
                (dropout): Dropout(p=0.1, inplace=False)
                (LayerNorm): LayerNorm((768,), eps=1e-12, elementwise_affine=True)
              )
            )
            (intermediate): GraphModule(
              (dense): Linear(in_features=768, out_features=3072, bias=True)
            )
            (output): GraphModule(
              (dense): Linear(in_features=3072, out_features=768, bias=True)
              (dropout): Dropout(p=0.1, inplace=False)
              (LayerNorm): LayerNorm((768,), eps=1e-12, elementwise_affine=True)
            )
          )
          (3): BertLayer(
            (attention): BertAttention(
              (self): BertSelfAttention(
                (query): GraphModule(
                  (module): Linear(in_features=768, out_features=768, bias=True)
                )
                (key): GraphModule(
                  (module): Linear(in_features=768, out_features=768, bias=True)
                )
                (value): GraphModule(
                  (module): Linear(in_features=768, out_features=768, bias=True)
                )
                (dropout): Dropout(p=0.1, inplace=False)
              )
              (output): GraphModule(
                (dense): Linear(in_features=768, out_features=768, bias=True)
                (dropout): Dropout(p=0.1, inplace=False)
                (LayerNorm): LayerNorm((768,), eps=1e-12, elementwise_affine=True)
              )
            )
            (intermediate): GraphModule(
              (dense): Linear(in_features=768, out_features=3072, bias=True)
            )
            (output): GraphModule(
              (dense): Linear(in_features=3072, out_features=768, bias=True)
              (dropout): Dropout(p=0.1, inplace=False)
              (LayerNorm): LayerNorm((768,), eps=1e-12, elementwise_affine=True)
            )
          )
          (4): BertLayer(
            (attention): BertAttention(
              (self): BertSelfAttention(
                (query): GraphModule(
                  (module): Linear(in_features=768, out_features=768, bias=True)
                )
                (key): GraphModule(
                  (module): Linear(in_features=768, out_features=768, bias=True)
                )
                (value): GraphModule(
                  (module): Linear(in_features=768, out_features=768, bias=True)
                )
                (dropout): Dropout(p=0.1, inplace=False)
              )
              (output): GraphModule(
                (dense): Linear(in_features=768, out_features=768, bias=True)
                (dropout): Dropout(p=0.1, inplace=False)
                (LayerNorm): LayerNorm((768,), eps=1e-12, elementwise_affine=True)
              )
            )
            (intermediate): GraphModule(
              (dense): Linear(in_features=768, out_features=3072, bias=True)
            )
            (output): GraphModule(
              (dense): Linear(in_features=3072, out_features=768, bias=True)
              (dropout): Dropout(p=0.1, inplace=False)
              (LayerNorm): LayerNorm((768,), eps=1e-12, elementwise_affine=True)
            )
          )
          (5): BertLayer(
            (attention): BertAttention(
              (self): BertSelfAttention(
                (query): GraphModule(
                  (module): Linear(in_features=768, out_features=768, bias=True)
                )
                (key): GraphModule(
                  (module): Linear(in_features=768, out_features=768, bias=True)
                )
                (value): GraphModule(
                  (module): Linear(in_features=768, out_features=768, bias=True)
                )
                (dropout): Dropout(p=0.1, inplace=False)
              )
              (output): GraphModule(
                (dense): Linear(in_features=768, out_features=768, bias=True)
                (dropout): Dropout(p=0.1, inplace=False)
                (LayerNorm): LayerNorm((768,), eps=1e-12, elementwise_affine=True)
              )
            )
            (intermediate): GraphModule(
              (dense): Linear(in_features=768, out_features=3072, bias=True)
            )
            (output): GraphModule(
              (dense): Linear(in_features=3072, out_features=768, bias=True)
              (dropout): Dropout(p=0.1, inplace=False)
              (LayerNorm): LayerNorm((768,), eps=1e-12, elementwise_affine=True)
            )
          )
          (6): BertLayer(
            (attention): BertAttention(
              (self): BertSelfAttention(
                (query): GraphModule(
                  (module): Linear(in_features=768, out_features=768, bias=True)
                )
                (key): GraphModule(
                  (module): Linear(in_features=768, out_features=768, bias=True)
                )
                (value): GraphModule(
                  (module): Linear(in_features=768, out_features=768, bias=True)
                )
                (dropout): Dropout(p=0.1, inplace=False)
              )
              (output): GraphModule(
                (dense): Linear(in_features=768, out_features=768, bias=True)
                (dropout): Dropout(p=0.1, inplace=False)
                (LayerNorm): LayerNorm((768,), eps=1e-12, elementwise_affine=True)
              )
            )
            (intermediate): GraphModule(
              (dense): Linear(in_features=768, out_features=3072, bias=True)
            )
            (output): GraphModule(
              (dense): Linear(in_features=3072, out_features=768, bias=True)
              (dropout): Dropout(p=0.1, inplace=False)
              (LayerNorm): LayerNorm((768,), eps=1e-12, elementwise_affine=True)
            )
          )
          (7): BertLayer(
            (attention): BertAttention(
              (self): BertSelfAttention(
                (query): GraphModule(
                  (module): Linear(in_features=768, out_features=768, bias=True)
                )
                (key): GraphModule(
                  (module): Linear(in_features=768, out_features=768, bias=True)
                )
                (value): GraphModule(
                  (module): Linear(in_features=768, out_features=768, bias=True)
                )
                (dropout): Dropout(p=0.1, inplace=False)
              )
              (output): GraphModule(
                (dense): Linear(in_features=768, out_features=768, bias=True)
                (dropout): Dropout(p=0.1, inplace=False)
                (LayerNorm): LayerNorm((768,), eps=1e-12, elementwise_affine=True)
              )
            )
            (intermediate): GraphModule(
              (dense): Linear(in_features=768, out_features=3072, bias=True)
            )
            (output): GraphModule(
              (dense): Linear(in_features=3072, out_features=768, bias=True)
              (dropout): Dropout(p=0.1, inplace=False)
              (LayerNorm): LayerNorm((768,), eps=1e-12, elementwise_affine=True)
            )
          )
          (8): BertLayer(
            (attention): BertAttention(
              (self): BertSelfAttention(
                (query): GraphModule(
                  (module): Linear(in_features=768, out_features=768, bias=True)
                )
                (key): GraphModule(
                  (module): Linear(in_features=768, out_features=768, bias=True)
                )
                (value): GraphModule(
                  (module): Linear(in_features=768, out_features=768, bias=True)
                )
                (dropout): Dropout(p=0.1, inplace=False)
              )
              (output): GraphModule(
                (dense): Linear(in_features=768, out_features=768, bias=True)
                (dropout): Dropout(p=0.1, inplace=False)
                (LayerNorm): LayerNorm((768,), eps=1e-12, elementwise_affine=True)
              )
            )
            (intermediate): GraphModule(
              (dense): Linear(in_features=768, out_features=3072, bias=True)
            )
            (output): GraphModule(
              (dense): Linear(in_features=3072, out_features=768, bias=True)
              (dropout): Dropout(p=0.1, inplace=False)
              (LayerNorm): LayerNorm((768,), eps=1e-12, elementwise_affine=True)
            )
          )
          (9): BertLayer(
            (attention): BertAttention(
              (self): BertSelfAttention(
                (query): GraphModule(
                  (module): Linear(in_features=768, out_features=768, bias=True)
                )
                (key): GraphModule(
                  (module): Linear(in_features=768, out_features=768, bias=True)
                )
                (value): GraphModule(
                  (module): Linear(in_features=768, out_features=768, bias=True)
                )
                (dropout): Dropout(p=0.1, inplace=False)
              )
              (output): GraphModule(
                (dense): Linear(in_features=768, out_features=768, bias=True)
                (dropout): Dropout(p=0.1, inplace=False)
                (LayerNorm): LayerNorm((768,), eps=1e-12, elementwise_affine=True)
              )
            )
            (intermediate): GraphModule(
              (dense): Linear(in_features=768, out_features=3072, bias=True)
            )
            (output): GraphModule(
              (dense): Linear(in_features=3072, out_features=768, bias=True)
              (dropout): Dropout(p=0.1, inplace=False)
              (LayerNorm): LayerNorm((768,), eps=1e-12, elementwise_affine=True)
            )
          )
          (10): BertLayer(
            (attention): BertAttention(
              (self): BertSelfAttention(
                (query): GraphModule(
                  (module): Linear(in_features=768, out_features=768, bias=True)
                )
                (key): GraphModule(
                  (module): Linear(in_features=768, out_features=768, bias=True)
                )
                (value): GraphModule(
                  (module): Linear(in_features=768, out_features=768, bias=True)
                )
                (dropout): Dropout(p=0.1, inplace=False)
              )
              (output): GraphModule(
                (dense): Linear(in_features=768, out_features=768, bias=True)
                (dropout): Dropout(p=0.1, inplace=False)
                (LayerNorm): LayerNorm((768,), eps=1e-12, elementwise_affine=True)
              )
            )
            (intermediate): GraphModule(
              (dense): Linear(in_features=768, out_features=3072, bias=True)
            )
            (output): GraphModule(
              (dense): Linear(in_features=3072, out_features=768, bias=True)
              (dropout): Dropout(p=0.1, inplace=False)
              (LayerNorm): LayerNorm((768,), eps=1e-12, elementwise_affine=True)
            )
          )
          (11): BertLayer(
            (attention): BertAttention(
              (self): BertSelfAttention(
                (query): GraphModule(
                  (module): Linear(in_features=768, out_features=768, bias=True)
                )
                (key): GraphModule(
                  (module): Linear(in_features=768, out_features=768, bias=True)
                )
                (value): GraphModule(
                  (module): Linear(in_features=768, out_features=768, bias=True)
                )
                (dropout): Dropout(p=0.1, inplace=False)
              )
              (output): GraphModule(
                (dense): Linear(in_features=768, out_features=768, bias=True)
                (dropout): Dropout(p=0.1, inplace=False)
                (LayerNorm): LayerNorm((768,), eps=1e-12, elementwise_affine=True)
              )
            )
            (intermediate): GraphModule(
              (dense): Linear(in_features=768, out_features=3072, bias=True)
            )
            (output): GraphModule(
              (dense): Linear(in_features=3072, out_features=768, bias=True)
              (dropout): Dropout(p=0.1, inplace=False)
              (LayerNorm): LayerNorm((768,), eps=1e-12, elementwise_affine=True)
            )
          )
        )
      )
      (pooler): GraphModule(
        (dense): Linear(in_features=768, out_features=768, bias=True)
        (activation): Tanh()
      )
    )
    (dropout): Dropout(p=0.1, inplace=False)
    (classifier): GraphModule(
      (module): Linear(in_features=768, out_features=1, bias=True)
    )
  )
)/home2/xinhe/anaconda3/envs/pytorch110_he/lib/python3.8/site-packages/torch/ao/quantization/observer.py:886: UserWarning: __floordiv__ is deprecated, and its behavior will change in a future version of pytorch. It currently rounds toward 0 (like the 'trunc' function NOT 'floor'). This results in incorrect rounding for negative values. To keep the current behavior, use torch.div(a, b, rounding_mode='trunc'), or for actual floor division, use torch.div(a, b, rounding_mode='floor').
…
2022-04-19 15:43:08 [INFO]     'eval_steps_per_second': 7.499
2022-04-19 15:43:08 [INFO] }
2022-04-19 15:43:08 [INFO] metric: 0.7799999713897705
2022-04-19 15:43:08 [INFO] Throughput: 57.684 samples/sec
2022-04-19 15:43:08 [INFO] Fx trace of the entire model failed, We will conduct auto quantization
2022-04-19 15:43:08 [WARNING] Please note that calibration sampling size 100 isn't divisible exactly by batch size 8. So the real sampling size is 104.
=========== asym kl
PyTorchFXModel(
  (_model): BertForMultipleChoice(
    (bert): BertModel(
      (embeddings): BertEmbeddings(
        (word_embeddings): GraphModule(
          (module): Embedding(30522, 768, padding_idx=0)
        )
        (position_embeddings): GraphModule(
          (module): Embedding(512, 768)
        )
        (token_type_embeddings): GraphModule(
          (module): Embedding(2, 768)
        )
        (LayerNorm): GraphModule(
          (module): LayerNorm((768,), eps=1e-12, elementwise_affine=True)
        )
        (dropout): Dropout(p=0.1, inplace=False)
      )
      (encoder): BertEncoder(
        (layer): ModuleList(
          (0): BertLayer(
            (attention): BertAttention(
              (self): BertSelfAttention(
                (query): GraphModule(
                  (module): Linear(in_features=768, out_features=768, bias=True)
                )
                (key): GraphModule(
                  (module): Linear(in_features=768, out_features=768, bias=True)
                )
                (value): GraphModule(
                  (module): Linear(in_features=768, out_features=768, bias=True)
                )
                (dropout): Dropout(p=0.1, inplace=False)
              )
              (output): GraphModule(
                (dense): Linear(in_features=768, out_features=768, bias=True)
                (dropout): Dropout(p=0.1, inplace=False)
                (LayerNorm): LayerNorm((768,), eps=1e-12, elementwise_affine=True)
              )
            )
            (intermediate): GraphModule(
              (dense): QuantizedLinear(in_features=768, out_features=3072, scale=0.08919712156057358, zero_point=151, qscheme=torch.per_channel_affine)
            )
            (output): GraphModule(
              (dense): Linear(in_features=3072, out_features=768, bias=True)
              (dropout): Dropout(p=0.1, inplace=False)
              (LayerNorm): LayerNorm((768,), eps=1e-12, elementwise_affine=True)
            )
          )
          (1): BertLayer(
            (attention): BertAttention(
              (self): BertSelfAttention(
                (query): GraphModule(
                  (module): Linear(in_features=768, out_features=768, bias=True)
                )
                (key): GraphModule(
                  (module): Linear(in_features=768, out_features=768, bias=True)
                )
                (value): GraphModule(
                  (module): Linear(in_features=768, out_features=768, bias=True)
                )
                (dropout): Dropout(p=0.1, inplace=False)
              )
              (output): GraphModule(
                (dense): Linear(in_features=768, out_features=768, bias=True)
                (dropout): Dropout(p=0.1, inplace=False)
                (LayerNorm): LayerNorm((768,), eps=1e-12, elementwise_affine=True)
              )
            )
            (intermediate): GraphModule(
              (dense): Linear(in_features=768, out_features=3072, bias=True)
            )
            (output): GraphModule(
              (dense): Linear(in_features=3072, out_features=768, bias=True)
              (dropout): Dropout(p=0.1, inplace=False)
              (LayerNorm): LayerNorm((768,), eps=1e-12, elementwise_affine=True)
            )
          )
          (2): BertLayer(
            (attention): BertAttention(
              (self): BertSelfAttention(
                (query): GraphModule(
                  (module): Linear(in_features=768, out_features=768, bias=True)
                )
                (key): GraphModule(
                  (module): Linear(in_features=768, out_features=768, bias=True)
                )
                (value): GraphModule(
                  (module): Linear(in_features=768, out_features=768, bias=True)
                )
                (dropout): Dropout(p=0.1, inplace=False)
              )
              (output): GraphModule(
                (dense): Linear(in_features=768, out_features=768, bias=True)
                (dropout): Dropout(p=0.1, inplace=False)
                (LayerNorm): LayerNorm((768,), eps=1e-12, elementwise_affine=True)
              )
            )
            (intermediate): GraphModule(
              (dense): Linear(in_features=768, out_features=3072, bias=True)
            )
            (output): GraphModule(
              (dense): Linear(in_features=3072, out_features=768, bias=True)
              (dropout): Dropout(p=0.1, inplace=False)
              (LayerNorm): LayerNorm((768,), eps=1e-12, elementwise_affine=True)
            )
          )
          (3): BertLayer(
            (attention): BertAttention(
              (self): BertSelfAttention(
                (query): GraphModule(
                  (module): Linear(in_features=768, out_features=768, bias=True)
                )
                (key): GraphModule(
                  (module): Linear(in_features=768, out_features=768, bias=True)
                )
                (value): GraphModule(
                  (module): Linear(in_features=768, out_features=768, bias=True)
                )
                (dropout): Dropout(p=0.1, inplace=False)
              )
              (output): GraphModule(
                (dense): Linear(in_features=768, out_features=768, bias=True)
                (dropout): Dropout(p=0.1, inplace=False)
                (LayerNorm): LayerNorm((768,), eps=1e-12, elementwise_affine=True)
              )
            )
            (intermediate): GraphModule(
              (dense): Linear(in_features=768, out_features=3072, bias=True)
            )
            (output): GraphModule(
              (dense): Linear(in_features=3072, out_features=768, bias=True)
              (dropout): Dropout(p=0.1, inplace=False)
              (LayerNorm): LayerNorm((768,), eps=1e-12, elementwise_affine=True)
            )
          )
          (4): BertLayer(
            (attention): BertAttention(
              (self): BertSelfAttention(
                (query): GraphModule(
                  (module): Linear(in_features=768, out_features=768, bias=True)
                )
                (key): GraphModule(
                  (module): Linear(in_features=768, out_features=768, bias=True)
                )
                (value): GraphModule(
                  (module): Linear(in_features=768, out_features=768, bias=True)
                )
                (dropout): Dropout(p=0.1, inplace=False)
              )
              (output): GraphModule(
                (dense): Linear(in_features=768, out_features=768, bias=True)
                (dropout): Dropout(p=0.1, inplace=False)
                (LayerNorm): LayerNorm((768,), eps=1e-12, elementwise_affine=True)
              )
            )
            (intermediate): GraphModule(
              (dense): Linear(in_features=768, out_features=3072, bias=True)
            )
            (output): GraphModule(
              (dense): Linear(in_features=3072, out_features=768, bias=True)
              (dropout): Dropout(p=0.1, inplace=False)
              (LayerNorm): LayerNorm((768,), eps=1e-12, elementwise_affine=True)
            )
          )
          (5): BertLayer(
            (attention): BertAttention(
              (self): BertSelfAttention(
                (query): GraphModule(
                  (module): Linear(in_features=768, out_features=768, bias=True)
                )
                (key): GraphModule(
                  (module): Linear(in_features=768, out_features=768, bias=True)
                )
                (value): GraphModule(
                  (module): Linear(in_features=768, out_features=768, bias=True)
                )
                (dropout): Dropout(p=0.1, inplace=False)
              )
              (output): GraphModule(
                (dense): Linear(in_features=768, out_features=768, bias=True)
                (dropout): Dropout(p=0.1, inplace=False)
                (LayerNorm): LayerNorm((768,), eps=1e-12, elementwise_affine=True)
              )
            )
            (intermediate): GraphModule(
              (dense): Linear(in_features=768, out_features=3072, bias=True)
            )
            (output): GraphModule(
              (dense): Linear(in_features=3072, out_features=768, bias=True)
              (dropout): Dropout(p=0.1, inplace=False)
              (LayerNorm): LayerNorm((768,), eps=1e-12, elementwise_affine=True)
            )
          )
          (6): BertLayer(
            (attention): BertAttention(
              (self): BertSelfAttention(
                (query): GraphModule(
                  (module): Linear(in_features=768, out_features=768, bias=True)
                )
                (key): GraphModule(
                  (module): Linear(in_features=768, out_features=768, bias=True)
                )
                (value): GraphModule(
                  (module): Linear(in_features=768, out_features=768, bias=True)
                )
                (dropout): Dropout(p=0.1, inplace=False)
              )
              (output): GraphModule(
                (dense): Linear(in_features=768, out_features=768, bias=True)
                (dropout): Dropout(p=0.1, inplace=False)
                (LayerNorm): LayerNorm((768,), eps=1e-12, elementwise_affine=True)
              )
            )
            (intermediate): GraphModule(
              (dense): Linear(in_features=768, out_features=3072, bias=True)
            )
            (output): GraphModule(
              (dense): Linear(in_features=3072, out_features=768, bias=True)
              (dropout): Dropout(p=0.1, inplace=False)
              (LayerNorm): LayerNorm((768,), eps=1e-12, elementwise_affine=True)
            )
          )
          (7): BertLayer(
            (attention): BertAttention(
              (self): BertSelfAttention(
                (query): GraphModule(
                  (module): Linear(in_features=768, out_features=768, bias=True)
                )
                (key): GraphModule(
                  (module): Linear(in_features=768, out_features=768, bias=True)
                )
                (value): GraphModule(
                  (module): Linear(in_features=768, out_features=768, bias=True)
                )
                (dropout): Dropout(p=0.1, inplace=False)
              )
              (output): GraphModule(
                (dense): Linear(in_features=768, out_features=768, bias=True)
                (dropout): Dropout(p=0.1, inplace=False)
                (LayerNorm): LayerNorm((768,), eps=1e-12, elementwise_affine=True)
              )
            )
            (intermediate): GraphModule(
              (dense): Linear(in_features=768, out_features=3072, bias=True)
            )
            (output): GraphModule(
              (dense): Linear(in_features=3072, out_features=768, bias=True)
              (dropout): Dropout(p=0.1, inplace=False)
              (LayerNorm): LayerNorm((768,), eps=1e-12, elementwise_affine=True)
            )
          )
          (8): BertLayer(
            (attention): BertAttention(
              (self): BertSelfAttention(
                (query): GraphModule(
                  (module): Linear(in_features=768, out_features=768, bias=True)
                )
                (key): GraphModule(
                  (module): Linear(in_features=768, out_features=768, bias=True)
                )
                (value): GraphModule(
                  (module): Linear(in_features=768, out_features=768, bias=True)
                )
                (dropout): Dropout(p=0.1, inplace=False)
              )
              (output): GraphModule(
                (dense): Linear(in_features=768, out_features=768, bias=True)
                (dropout): Dropout(p=0.1, inplace=False)
                (LayerNorm): LayerNorm((768,), eps=1e-12, elementwise_affine=True)
              )
            )
            (intermediate): GraphModule(
              (dense): Linear(in_features=768, out_features=3072, bias=True)
            )
            (output): GraphModule(
              (dense): Linear(in_features=3072, out_features=768, bias=True)
              (dropout): Dropout(p=0.1, inplace=False)
              (LayerNorm): LayerNorm((768,), eps=1e-12, elementwise_affine=True)
            )
          )
          (9): BertLayer(
            (attention): BertAttention(
              (self): BertSelfAttention(
                (query): GraphModule(
                  (module): Linear(in_features=768, out_features=768, bias=True)
                )
                (key): GraphModule(
                  (module): Linear(in_features=768, out_features=768, bias=True)
                )
                (value): GraphModule(
                  (module): Linear(in_features=768, out_features=768, bias=True)
                )
                (dropout): Dropout(p=0.1, inplace=False)
              )
              (output): GraphModule(
                (dense): Linear(in_features=768, out_features=768, bias=True)
                (dropout): Dropout(p=0.1, inplace=False)
                (LayerNorm): LayerNorm((768,), eps=1e-12, elementwise_affine=True)
              )
            )
            (intermediate): GraphModule(
              (dense): Linear(in_features=768, out_features=3072, bias=True)
            )
            (output): GraphModule(
              (dense): Linear(in_features=3072, out_features=768, bias=True)
              (dropout): Dropout(p=0.1, inplace=False)
              (LayerNorm): LayerNorm((768,), eps=1e-12, elementwise_affine=True)
            )
          )
          (10): BertLayer(
            (attention): BertAttention(
              (self): BertSelfAttention(
                (query): GraphModule(
                  (module): Linear(in_features=768, out_features=768, bias=True)
                )
                (key): GraphModule(
                  (module): Linear(in_features=768, out_features=768, bias=True)
                )
                (value): GraphModule(
                  (module): Linear(in_features=768, out_features=768, bias=True)
                )
                (dropout): Dropout(p=0.1, inplace=False)
              )
              (output): GraphModule(
                (dense): Linear(in_features=768, out_features=768, bias=True)
                (dropout): Dropout(p=0.1, inplace=False)
                (LayerNorm): LayerNorm((768,), eps=1e-12, elementwise_affine=True)
              )
            )
            (intermediate): GraphModule(
              (dense): Linear(in_features=768, out_features=3072, bias=True)
            )
            (output): GraphModule(
              (dense): Linear(in_features=3072, out_features=768, bias=True)
              (dropout): Dropout(p=0.1, inplace=False)
              (LayerNorm): LayerNorm((768,), eps=1e-12, elementwise_affine=True)
            )
          )
          (11): BertLayer(
            (attention): BertAttention(
              (self): BertSelfAttention(
                (query): GraphModule(
                  (module): Linear(in_features=768, out_features=768, bias=True)
                )
                (key): GraphModule(
                  (module): Linear(in_features=768, out_features=768, bias=True)
                )
                (value): GraphModule(
                  (module): Linear(in_features=768, out_features=768, bias=True)
                )
                (dropout): Dropout(p=0.1, inplace=False)
              )
              (output): GraphModule(
                (dense): Linear(in_features=768, out_features=768, bias=True)
                (dropout): Dropout(p=0.1, inplace=False)
                (LayerNorm): LayerNorm((768,), eps=1e-12, elementwise_affine=True)
              )
            )
            (intermediate): GraphModule(
              (dense): Linear(in_features=768, out_features=3072, bias=True)
            )
            (output): GraphModule(
              (dense): Linear(in_features=3072, out_features=768, bias=True)
              (dropout): Dropout(p=0.1, inplace=False)
              (LayerNorm): LayerNorm((768,), eps=1e-12, elementwise_affine=True)
            )
          )
        )
      )
      (pooler): GraphModule(
        (dense): Linear(in_features=768, out_features=768, bias=True)
        (activation): Tanh()
      )
    )
    (dropout): Dropout(p=0.1, inplace=False)
    (classifier): GraphModule(
      (module): Linear(in_features=768, out_features=1, bias=True)
    )
  )
)2022-04-19 15:43:11 [INFO] |*********Mixed Precision Statistics********|
2022-04-19 15:43:11 [INFO] +---------------------+-------+------+------+
2022-04-19 15:43:11 [INFO] |       Op Type       | Total | INT8 | FP32 |
2022-04-19 15:43:11 [INFO] +---------------------+-------+------+------+
2022-04-19 15:43:11 [INFO] |      Embedding      |   3   |  0   |  3   |
…
2022-04-19 15:43:13 [INFO]     'eval_steps_per_second': 7.597
2022-04-19 15:43:13 [INFO] }
2022-04-19 15:43:13 [INFO] metric: 0.7699999809265137
2022-04-19 15:43:13 [INFO] Throughput: 58.441 samples/sec
2022-04-19 15:43:13 [INFO] Fx trace of the entire model failed, We will conduct auto quantization
2022-04-19 15:43:13 [WARNING] Please note that calibration sampling size 100 isn't divisible exactly by batch size 8. So the real sampling size is 104.
=========== asym kl
PyTorchFXModel(
  (_model): BertForMultipleChoice(
    (bert): BertModel(
      (embeddings): BertEmbeddings(
        (word_embeddings): GraphModule(
          (module): Embedding(30522, 768, padding_idx=0)
        )
        (position_embeddings): GraphModule(
          (module): Embedding(512, 768)
        )
        (token_type_embeddings): GraphModule(
          (module): Embedding(2, 768)
        )
        (LayerNorm): GraphModule(
          (module): LayerNorm((768,), eps=1e-12, elementwise_affine=True)
        )
        (dropout): Dropout(p=0.1, inplace=False)
      )
      (encoder): BertEncoder(
        (layer): ModuleList(
          (0): BertLayer(
            (attention): BertAttention(
              (self): BertSelfAttention(
                (query): GraphModule(
                  (module): Linear(in_features=768, out_features=768, bias=True)
                )
                (key): GraphModule(
                  (module): Linear(in_features=768, out_features=768, bias=True)
                )
                (value): GraphModule(
                  (module): Linear(in_features=768, out_features=768, bias=True)
                )
                (dropout): Dropout(p=0.1, inplace=False)
              )
              (output): GraphModule(
                (dense): Linear(in_features=768, out_features=768, bias=True)
                (dropout): Dropout(p=0.1, inplace=False)
                (LayerNorm): LayerNorm((768,), eps=1e-12, elementwise_affine=True)
              )
            )
            (intermediate): GraphModule(
              (dense): Linear(in_features=768, out_features=3072, bias=True)
            )
            (output): GraphModule(
              (dense): QuantizedLinear(in_features=3072, out_features=768, scale=0.22379988431930542, zero_point=202, qscheme=torch.per_channel_affine)
              (dropout): Dropout(p=0.1, inplace=False)
              (LayerNorm): LayerNorm((768,), eps=1e-12, elementwise_affine=True)
            )
          )
          (1): BertLayer(
            (attention): BertAttention(
              (self): BertSelfAttention(
                (query): GraphModule(
                  (module): Linear(in_features=768, out_features=768, bias=True)
                )
                (key): GraphModule(
                  (module): Linear(in_features=768, out_features=768, bias=True)
                )
                (value): GraphModule(
                  (module): Linear(in_features=768, out_features=768, bias=True)
                )
                (dropout): Dropout(p=0.1, inplace=False)
              )
              (output): GraphModule(
                (dense): Linear(in_features=768, out_features=768, bias=True)
                (dropout): Dropout(p=0.1, inplace=False)
                (LayerNorm): LayerNorm((768,), eps=1e-12, elementwise_affine=True)
              )
            )
            (intermediate): GraphModule(
              (dense): Linear(in_features=768, out_features=3072, bias=True)
            )
            (output): GraphModule(
              (dense): Linear(in_features=3072, out_features=768, bias=True)
              (dropout): Dropout(p=0.1, inplace=False)
              (LayerNorm): LayerNorm((768,), eps=1e-12, elementwise_affine=True)
            )
          )
          (2): BertLayer(
            (attention): BertAttention(
              (self): BertSelfAttention(
                (query): GraphModule(
                  (module): Linear(in_features=768, out_features=768, bias=True)
                )
                (key): GraphModule(
                  (module): Linear(in_features=768, out_features=768, bias=True)
                )
                (value): GraphModule(
                  (module): Linear(in_features=768, out_features=768, bias=True)
                )
                (dropout): Dropout(p=0.1, inplace=False)
              )
              (output): GraphModule(
                (dense): Linear(in_features=768, out_features=768, bias=True)
                (dropout): Dropout(p=0.1, inplace=False)
                (LayerNorm): LayerNorm((768,), eps=1e-12, elementwise_affine=True)
              )
            )
            (intermediate): GraphModule(
              (dense): Linear(in_features=768, out_features=3072, bias=True)
            )
            (output): GraphModule(
              (dense): Linear(in_features=3072, out_features=768, bias=True)
              (dropout): Dropout(p=0.1, inplace=False)
              (LayerNorm): LayerNorm((768,), eps=1e-12, elementwise_affine=True)
            )
          )
          (3): BertLayer(
            (attention): BertAttention(
              (self): BertSelfAttention(
                (query): GraphModule(
                  (module): Linear(in_features=768, out_features=768, bias=True)
                )
                (key): GraphModule(
                  (module): Linear(in_features=768, out_features=768, bias=True)
                )
                (value): GraphModule(
                  (module): Linear(in_features=768, out_features=768, bias=True)
                )
                (dropout): Dropout(p=0.1, inplace=False)
              )
              (output): GraphModule(
                (dense): Linear(in_features=768, out_features=768, bias=True)
                (dropout): Dropout(p=0.1, inplace=False)
                (LayerNorm): LayerNorm((768,), eps=1e-12, elementwise_affine=True)
              )
            )
            (intermediate): GraphModule(
              (dense): Linear(in_features=768, out_features=3072, bias=True)
            )
            (output): GraphModule(
              (dense): Linear(in_features=3072, out_features=768, bias=True)
              (dropout): Dropout(p=0.1, inplace=False)
              (LayerNorm): LayerNorm((768,), eps=1e-12, elementwise_affine=True)
            )
          )
          (4): BertLayer(
            (attention): BertAttention(
              (self): BertSelfAttention(
                (query): GraphModule(
                  (module): Linear(in_features=768, out_features=768, bias=True)
                )
                (key): GraphModule(
                  (module): Linear(in_features=768, out_features=768, bias=True)
                )
                (value): GraphModule(
                  (module): Linear(in_features=768, out_features=768, bias=True)
                )
                (dropout): Dropout(p=0.1, inplace=False)
              )
              (output): GraphModule(
                (dense): Linear(in_features=768, out_features=768, bias=True)
                (dropout): Dropout(p=0.1, inplace=False)
                (LayerNorm): LayerNorm((768,), eps=1e-12, elementwise_affine=True)
              )
            )
            (intermediate): GraphModule(
              (dense): Linear(in_features=768, out_features=3072, bias=True)
            )
            (output): GraphModule(
              (dense): Linear(in_features=3072, out_features=768, bias=True)
              (dropout): Dropout(p=0.1, inplace=False)
              (LayerNorm): LayerNorm((768,), eps=1e-12, elementwise_affine=True)
            )
          )
          (5): BertLayer(
            (attention): BertAttention(
              (self): BertSelfAttention(
                (query): GraphModule(
                  (module): Linear(in_features=768, out_features=768, bias=True)
                )
                (key): GraphModule(
                  (module): Linear(in_features=768, out_features=768, bias=True)
                )
                (value): GraphModule(
                  (module): Linear(in_features=768, out_features=768, bias=True)
                )
                (dropout): Dropout(p=0.1, inplace=False)
              )
              (output): GraphModule(
                (dense): Linear(in_features=768, out_features=768, bias=True)
                (dropout): Dropout(p=0.1, inplace=False)
                (LayerNorm): LayerNorm((768,), eps=1e-12, elementwise_affine=True)
              )
            )
            (intermediate): GraphModule(
              (dense): Linear(in_features=768, out_features=3072, bias=True)
            )
            (output): GraphModule(
              (dense): Linear(in_features=3072, out_features=768, bias=True)
              (dropout): Dropout(p=0.1, inplace=False)
              (LayerNorm): LayerNorm((768,), eps=1e-12, elementwise_affine=True)
            )
          )
          (6): BertLayer(
            (attention): BertAttention(
              (self): BertSelfAttention(
                (query): GraphModule(
                  (module): Linear(in_features=768, out_features=768, bias=True)
                )
                (key): GraphModule(
                  (module): Linear(in_features=768, out_features=768, bias=True)
                )
                (value): GraphModule(
                  (module): Linear(in_features=768, out_features=768, bias=True)
                )
                (dropout): Dropout(p=0.1, inplace=False)
              )
              (output): GraphModule(
                (dense): Linear(in_features=768, out_features=768, bias=True)
                (dropout): Dropout(p=0.1, inplace=False)
                (LayerNorm): LayerNorm((768,), eps=1e-12, elementwise_affine=True)
              )
            )
            (intermediate): GraphModule(
              (dense): Linear(in_features=768, out_features=3072, bias=True)
            )
            (output): GraphModule(
              (dense): Linear(in_features=3072, out_features=768, bias=True)
              (dropout): Dropout(p=0.1, inplace=False)
              (LayerNorm): LayerNorm((768,), eps=1e-12, elementwise_affine=True)
            )
          )
          (7): BertLayer(
            (attention): BertAttention(
              (self): BertSelfAttention(
                (query): GraphModule(
                  (module): Linear(in_features=768, out_features=768, bias=True)
                )
                (key): GraphModule(
                  (module): Linear(in_features=768, out_features=768, bias=True)
                )
                (value): GraphModule(
                  (module): Linear(in_features=768, out_features=768, bias=True)
                )
                (dropout): Dropout(p=0.1, inplace=False)
              )
              (output): GraphModule(
                (dense): Linear(in_features=768, out_features=768, bias=True)
                (dropout): Dropout(p=0.1, inplace=False)
                (LayerNorm): LayerNorm((768,), eps=1e-12, elementwise_affine=True)
              )
            )
            (intermediate): GraphModule(
              (dense): Linear(in_features=768, out_features=3072, bias=True)
            )
            (output): GraphModule(
              (dense): Linear(in_features=3072, out_features=768, bias=True)
              (dropout): Dropout(p=0.1, inplace=False)
              (LayerNorm): LayerNorm((768,), eps=1e-12, elementwise_affine=True)
            )
          )
          (8): BertLayer(
            (attention): BertAttention(
              (self): BertSelfAttention(
                (query): GraphModule(
                  (module): Linear(in_features=768, out_features=768, bias=True)
                )
                (key): GraphModule(
                  (module): Linear(in_features=768, out_features=768, bias=True)
                )
                (value): GraphModule(
                  (module): Linear(in_features=768, out_features=768, bias=True)
                )
                (dropout): Dropout(p=0.1, inplace=False)
              )
              (output): GraphModule(
                (dense): Linear(in_features=768, out_features=768, bias=True)
                (dropout): Dropout(p=0.1, inplace=False)
                (LayerNorm): LayerNorm((768,), eps=1e-12, elementwise_affine=True)
              )
            )
            (intermediate): GraphModule(
              (dense): Linear(in_features=768, out_features=3072, bias=True)
            )
            (output): GraphModule(
              (dense): Linear(in_features=3072, out_features=768, bias=True)
              (dropout): Dropout(p=0.1, inplace=False)
              (LayerNorm): LayerNorm((768,), eps=1e-12, elementwise_affine=True)
            )
          )
          (9): BertLayer(
            (attention): BertAttention(
              (self): BertSelfAttention(
                (query): GraphModule(
                  (module): Linear(in_features=768, out_features=768, bias=True)
                )
                (key): GraphModule(
                  (module): Linear(in_features=768, out_features=768, bias=True)
                )
                (value): GraphModule(
                  (module): Linear(in_features=768, out_features=768, bias=True)
                )
                (dropout): Dropout(p=0.1, inplace=False)
              )
              (output): GraphModule(
                (dense): Linear(in_features=768, out_features=768, bias=True)
                (dropout): Dropout(p=0.1, inplace=False)
                (LayerNorm): LayerNorm((768,), eps=1e-12, elementwise_affine=True)
              )
            )
            (intermediate): GraphModule(
              (dense): Linear(in_features=768, out_features=3072, bias=True)
            )
            (output): GraphModule(
              (dense): Linear(in_features=3072, out_features=768, bias=True)
              (dropout): Dropout(p=0.1, inplace=False)
              (LayerNorm): LayerNorm((768,), eps=1e-12, elementwise_affine=True)
            )
          )
          (10): BertLayer(
            (attention): BertAttention(
              (self): BertSelfAttention(
                (query): GraphModule(
                  (module): Linear(in_features=768, out_features=768, bias=True)
                )
                (key): GraphModule(
                  (module): Linear(in_features=768, out_features=768, bias=True)
                )
                (value): GraphModule(
                  (module): Linear(in_features=768, out_features=768, bias=True)
                )
                (dropout): Dropout(p=0.1, inplace=False)
              )
              (output): GraphModule(
                (dense): Linear(in_features=768, out_features=768, bias=True)
                (dropout): Dropout(p=0.1, inplace=False)
                (LayerNorm): LayerNorm((768,), eps=1e-12, elementwise_affine=True)
              )
            )
            (intermediate): GraphModule(
              (dense): Linear(in_features=768, out_features=3072, bias=True)
            )
            (output): GraphModule(
              (dense): Linear(in_features=3072, out_features=768, bias=True)
              (dropout): Dropout(p=0.1, inplace=False)
              (LayerNorm): LayerNorm((768,), eps=1e-12, elementwise_affine=True)
            )
          )
          (11): BertLayer(
            (attention): BertAttention(
              (self): BertSelfAttention(
                (query): GraphModule(
                  (module): Linear(in_features=768, out_features=768, bias=True)
                )
                (key): GraphModule(
                  (module): Linear(in_features=768, out_features=768, bias=True)
                )
                (value): GraphModule(
                  (module): Linear(in_features=768, out_features=768, bias=True)
                )
                (dropout): Dropout(p=0.1, inplace=False)
              )
              (output): GraphModule(
                (dense): Linear(in_features=768, out_features=768, bias=True)
                (dropout): Dropout(p=0.1, inplace=False)
                (LayerNorm): LayerNorm((768,), eps=1e-12, elementwise_affine=True)
              )
            )
            (intermediate): GraphModule(
              (dense): Linear(in_features=768, out_features=3072, bias=True)
            )
            (output): GraphModule(
              (dense): Linear(in_features=3072, out_features=768, bias=True)
              (dropout): Dropout(p=0.1, inplace=False)
              (LayerNorm): LayerNorm((768,), eps=1e-12, elementwise_affine=True)
            )
          )
        )
      )
      (pooler): GraphModule(
        (dense): Linear(in_features=768, out_features=768, bias=True)
        (activation): Tanh()
      )
    )
    (dropout): Dropout(p=0.1, inplace=False)
    (classifier): GraphModule(
      (module): Linear(in_features=768, out_features=1, bias=True)
    )
  )
)2022-04-19 15:43:15 [INFO] |*********Mixed Precision Statistics********|
2022-04-19 15:43:15 [INFO] +---------------------+-------+------+------+
2022-04-19 15:43:15 [INFO] |       Op Type       | Total | INT8 | FP32 |
2022-04-19 15:43:15 [INFO] +---------------------+-------+------+------+
2022-04-19 15:43:15 [INFO] |      Embedding      |   3   |  0   |  3   |
…
2022-04-19 15:43:17 [INFO]     'eval_steps_per_second': 7.669
2022-04-19 15:43:17 [INFO] }
2022-04-19 15:43:17 [INFO] metric: 0.7599999904632568
2022-04-19 15:43:17 [INFO] Throughput: 58.989 samples/sec
2022-04-19 15:43:17 [INFO] Fx trace of the entire model failed, We will conduct auto quantization
2022-04-19 15:43:17 [WARNING] Please note that calibration sampling size 100 isn't divisible exactly by batch size 8. So the real sampling size is 104.
=========== asym kl
PyTorchFXModel(
  (_model): BertForMultipleChoice(
    (bert): BertModel(
      (embeddings): BertEmbeddings(
        (word_embeddings): GraphModule(
          (module): Embedding(30522, 768, padding_idx=0)
        )
        (position_embeddings): GraphModule(
          (module): Embedding(512, 768)
        )
        (token_type_embeddings): GraphModule(
          (module): Embedding(2, 768)
        )
        (LayerNorm): GraphModule(
          (module): LayerNorm((768,), eps=1e-12, elementwise_affine=True)
        )
        (dropout): Dropout(p=0.1, inplace=False)
      )
      (encoder): BertEncoder(
        (layer): ModuleList(
          (0): BertLayer(
            (attention): BertAttention(
              (self): BertSelfAttention(
                (query): GraphModule(
                  (module): Linear(in_features=768, out_features=768, bias=True)
                )
                (key): GraphModule(
                  (module): Linear(in_features=768, out_features=768, bias=True)
                )
                (value): GraphModule(
                  (module): Linear(in_features=768, out_features=768, bias=True)
                )
                (dropout): Dropout(p=0.1, inplace=False)
              )
              (output): GraphModule(
                (dense): Linear(in_features=768, out_features=768, bias=True)
                (dropout): Dropout(p=0.1, inplace=False)
                (LayerNorm): LayerNorm((768,), eps=1e-12, elementwise_affine=True)
              )
            )
            (intermediate): GraphModule(
              (dense): Linear(in_features=768, out_features=3072, bias=True)
            )
            (output): GraphModule(
              (dense): Linear(in_features=3072, out_features=768, bias=True)
              (dropout): Dropout(p=0.1, inplace=False)
              (LayerNorm): LayerNorm((768,), eps=1e-12, elementwise_affine=True)
            )
          )
          (1): BertLayer(
            (attention): BertAttention(
              (self): BertSelfAttention(
                (query): GraphModule(
                  (module): QuantizedLinear(in_features=768, out_features=768, scale=0.046956196427345276, zero_point=121, qscheme=torch.per_channel_affine)
                )
                (key): GraphModule(
                  (module): Linear(in_features=768, out_features=768, bias=True)
                )
                (value): GraphModule(
                  (module): Linear(in_features=768, out_features=768, bias=True)
                )
                (dropout): Dropout(p=0.1, inplace=False)
              )
              (output): GraphModule(
                (dense): Linear(in_features=768, out_features=768, bias=True)
                (dropout): Dropout(p=0.1, inplace=False)
                (LayerNorm): LayerNorm((768,), eps=1e-12, elementwise_affine=True)
              )
            )
            (intermediate): GraphModule(
              (dense): Linear(in_features=768, out_features=3072, bias=True)
            )
            (output): GraphModule(
              (dense): Linear(in_features=3072, out_features=768, bias=True)
              (dropout): Dropout(p=0.1, inplace=False)
              (LayerNorm): LayerNorm((768,), eps=1e-12, elementwise_affine=True)
            )
          )
          (2): BertLayer(
            (attention): BertAttention(
              (self): BertSelfAttention(
                (query): GraphModule(
                  (module): Linear(in_features=768, out_features=768, bias=True)
                )
                (key): GraphModule(
                  (module): Linear(in_features=768, out_features=768, bias=True)
                )
                (value): GraphModule(
                  (module): Linear(in_features=768, out_features=768, bias=True)
                )
                (dropout): Dropout(p=0.1, inplace=False)
              )
              (output): GraphModule(
                (dense): Linear(in_features=768, out_features=768, bias=True)
                (dropout): Dropout(p=0.1, inplace=False)
                (LayerNorm): LayerNorm((768,), eps=1e-12, elementwise_affine=True)
              )
            )
            (intermediate): GraphModule(
              (dense): Linear(in_features=768, out_features=3072, bias=True)
            )
            (output): GraphModule(
              (dense): Linear(in_features=3072, out_features=768, bias=True)
              (dropout): Dropout(p=0.1, inplace=False)
              (LayerNorm): LayerNorm((768,), eps=1e-12, elementwise_affine=True)
            )
          )
          (3): BertLayer(
            (attention): BertAttention(
              (self): BertSelfAttention(
                (query): GraphModule(
                  (module): Linear(in_features=768, out_features=768, bias=True)
                )
                (key): GraphModule(
                  (module): Linear(in_features=768, out_features=768, bias=True)
                )
                (value): GraphModule(
                  (module): Linear(in_features=768, out_features=768, bias=True)
                )
                (dropout): Dropout(p=0.1, inplace=False)
              )
              (output): GraphModule(
                (dense): Linear(in_features=768, out_features=768, bias=True)
                (dropout): Dropout(p=0.1, inplace=False)
                (LayerNorm): LayerNorm((768,), eps=1e-12, elementwise_affine=True)
              )
            )
            (intermediate): GraphModule(
              (dense): Linear(in_features=768, out_features=3072, bias=True)
            )
            (output): GraphModule(
              (dense): Linear(in_features=3072, out_features=768, bias=True)
              (dropout): Dropout(p=0.1, inplace=False)
              (LayerNorm): LayerNorm((768,), eps=1e-12, elementwise_affine=True)
            )
          )
          (4): BertLayer(
            (attention): BertAttention(
              (self): BertSelfAttention(
                (query): GraphModule(
                  (module): Linear(in_features=768, out_features=768, bias=True)
                )
                (key): GraphModule(
                  (module): Linear(in_features=768, out_features=768, bias=True)
                )
                (value): GraphModule(
                  (module): Linear(in_features=768, out_features=768, bias=True)
                )
                (dropout): Dropout(p=0.1, inplace=False)
              )
              (output): GraphModule(
                (dense): Linear(in_features=768, out_features=768, bias=True)
                (dropout): Dropout(p=0.1, inplace=False)
                (LayerNorm): LayerNorm((768,), eps=1e-12, elementwise_affine=True)
              )
            )
            (intermediate): GraphModule(
              (dense): Linear(in_features=768, out_features=3072, bias=True)
            )
            (output): GraphModule(
              (dense): Linear(in_features=3072, out_features=768, bias=True)
              (dropout): Dropout(p=0.1, inplace=False)
              (LayerNorm): LayerNorm((768,), eps=1e-12, elementwise_affine=True)
            )
          )
          (5): BertLayer(
            (attention): BertAttention(
              (self): BertSelfAttention(
                (query): GraphModule(
                  (module): Linear(in_features=768, out_features=768, bias=True)
                )
                (key): GraphModule(
                  (module): Linear(in_features=768, out_features=768, bias=True)
                )
                (value): GraphModule(
                  (module): Linear(in_features=768, out_features=768, bias=True)
                )
                (dropout): Dropout(p=0.1, inplace=False)
              )
              (output): GraphModule(
                (dense): Linear(in_features=768, out_features=768, bias=True)
                (dropout): Dropout(p=0.1, inplace=False)
                (LayerNorm): LayerNorm((768,), eps=1e-12, elementwise_affine=True)
              )
            )
            (intermediate): GraphModule(
              (dense): Linear(in_features=768, out_features=3072, bias=True)
            )
            (output): GraphModule(
              (dense): Linear(in_features=3072, out_features=768, bias=True)
              (dropout): Dropout(p=0.1, inplace=False)
              (LayerNorm): LayerNorm((768,), eps=1e-12, elementwise_affine=True)
            )
          )
          (6): BertLayer(
            (attention): BertAttention(
              (self): BertSelfAttention(
                (query): GraphModule(
                  (module): Linear(in_features=768, out_features=768, bias=True)
                )
                (key): GraphModule(
                  (module): Linear(in_features=768, out_features=768, bias=True)
                )
                (value): GraphModule(
                  (module): Linear(in_features=768, out_features=768, bias=True)
                )
                (dropout): Dropout(p=0.1, inplace=False)
              )
              (output): GraphModule(
                (dense): Linear(in_features=768, out_features=768, bias=True)
                (dropout): Dropout(p=0.1, inplace=False)
                (LayerNorm): LayerNorm((768,), eps=1e-12, elementwise_affine=True)
              )
            )
            (intermediate): GraphModule(
              (dense): Linear(in_features=768, out_features=3072, bias=True)
            )
            (output): GraphModule(
              (dense): Linear(in_features=3072, out_features=768, bias=True)
              (dropout): Dropout(p=0.1, inplace=False)
              (LayerNorm): LayerNorm((768,), eps=1e-12, elementwise_affine=True)
            )
          )
          (7): BertLayer(
            (attention): BertAttention(
              (self): BertSelfAttention(
                (query): GraphModule(
                  (module): Linear(in_features=768, out_features=768, bias=True)
                )
                (key): GraphModule(
                  (module): Linear(in_features=768, out_features=768, bias=True)
                )
                (value): GraphModule(
                  (module): Linear(in_features=768, out_features=768, bias=True)
                )
                (dropout): Dropout(p=0.1, inplace=False)
              )
              (output): GraphModule(
                (dense): Linear(in_features=768, out_features=768, bias=True)
                (dropout): Dropout(p=0.1, inplace=False)
                (LayerNorm): LayerNorm((768,), eps=1e-12, elementwise_affine=True)
              )
            )
            (intermediate): GraphModule(
              (dense): Linear(in_features=768, out_features=3072, bias=True)
            )
            (output): GraphModule(
              (dense): Linear(in_features=3072, out_features=768, bias=True)
              (dropout): Dropout(p=0.1, inplace=False)
              (LayerNorm): LayerNorm((768,), eps=1e-12, elementwise_affine=True)
            )
          )
          (8): BertLayer(
            (attention): BertAttention(
              (self): BertSelfAttention(
                (query): GraphModule(
                  (module): Linear(in_features=768, out_features=768, bias=True)
                )
                (key): GraphModule(
                  (module): Linear(in_features=768, out_features=768, bias=True)
                )
                (value): GraphModule(
                  (module): Linear(in_features=768, out_features=768, bias=True)
                )
                (dropout): Dropout(p=0.1, inplace=False)
              )
              (output): GraphModule(
                (dense): Linear(in_features=768, out_features=768, bias=True)
                (dropout): Dropout(p=0.1, inplace=False)
                (LayerNorm): LayerNorm((768,), eps=1e-12, elementwise_affine=True)
              )
            )
            (intermediate): GraphModule(
              (dense): Linear(in_features=768, out_features=3072, bias=True)
            )
            (output): GraphModule(
              (dense): Linear(in_features=3072, out_features=768, bias=True)
              (dropout): Dropout(p=0.1, inplace=False)
              (LayerNorm): LayerNorm((768,), eps=1e-12, elementwise_affine=True)
            )
          )
          (9): BertLayer(
            (attention): BertAttention(
              (self): BertSelfAttention(
                (query): GraphModule(
                  (module): Linear(in_features=768, out_features=768, bias=True)
                )
                (key): GraphModule(
                  (module): Linear(in_features=768, out_features=768, bias=True)
                )
                (value): GraphModule(
                  (module): Linear(in_features=768, out_features=768, bias=True)
                )
                (dropout): Dropout(p=0.1, inplace=False)
              )
              (output): GraphModule(
                (dense): Linear(in_features=768, out_features=768, bias=True)
                (dropout): Dropout(p=0.1, inplace=False)
                (LayerNorm): LayerNorm((768,), eps=1e-12, elementwise_affine=True)
              )
            )
            (intermediate): GraphModule(
              (dense): Linear(in_features=768, out_features=3072, bias=True)
            )
            (output): GraphModule(
              (dense): Linear(in_features=3072, out_features=768, bias=True)
              (dropout): Dropout(p=0.1, inplace=False)
              (LayerNorm): LayerNorm((768,), eps=1e-12, elementwise_affine=True)
            )
          )
          (10): BertLayer(
            (attention): BertAttention(
              (self): BertSelfAttention(
                (query): GraphModule(
                  (module): Linear(in_features=768, out_features=768, bias=True)
                )
                (key): GraphModule(
                  (module): Linear(in_features=768, out_features=768, bias=True)
                )
                (value): GraphModule(
                  (module): Linear(in_features=768, out_features=768, bias=True)
                )
                (dropout): Dropout(p=0.1, inplace=False)
              )
              (output): GraphModule(
                (dense): Linear(in_features=768, out_features=768, bias=True)
                (dropout): Dropout(p=0.1, inplace=False)
                (LayerNorm): LayerNorm((768,), eps=1e-12, elementwise_affine=True)
              )
            )
            (intermediate): GraphModule(
              (dense): Linear(in_features=768, out_features=3072, bias=True)
            )
            (output): GraphModule(
              (dense): Linear(in_features=3072, out_features=768, bias=True)
              (dropout): Dropout(p=0.1, inplace=False)
              (LayerNorm): LayerNorm((768,), eps=1e-12, elementwise_affine=True)
            )
          )
          (11): BertLayer(
            (attention): BertAttention(
              (self): BertSelfAttention(
                (query): GraphModule(
                  (module): Linear(in_features=768, out_features=768, bias=True)
                )
                (key): GraphModule(
                  (module): Linear(in_features=768, out_features=768, bias=True)
                )
                (value): GraphModule(
                  (module): Linear(in_features=768, out_features=768, bias=True)
                )
                (dropout): Dropout(p=0.1, inplace=False)
              )
              (output): GraphModule(
                (dense): Linear(in_features=768, out_features=768, bias=True)
                (dropout): Dropout(p=0.1, inplace=False)
                (LayerNorm): LayerNorm((768,), eps=1e-12, elementwise_affine=True)
              )
            )
            (intermediate): GraphModule(
              (dense): Linear(in_features=768, out_features=3072, bias=True)
            )
            (output): GraphModule(
              (dense): Linear(in_features=3072, out_features=768, bias=True)
              (dropout): Dropout(p=0.1, inplace=False)
              (LayerNorm): LayerNorm((768,), eps=1e-12, elementwise_affine=True)
            )
          )
        )
      )
      (pooler): GraphModule(
        (dense): Linear(in_features=768, out_features=768, bias=True)
        (activation): Tanh()
      )
    )
    (dropout): Dropout(p=0.1, inplace=False)
    (classifier): GraphModule(
      (module): Linear(in_features=768, out_features=1, bias=True)
    )
  )
)2022-04-19 15:43:20 [INFO] |*********Mixed Precision Statistics********|
2022-04-19 15:43:20 [INFO] +---------------------+-------+------+------+
2022-04-19 15:43:20 [INFO] |       Op Type       | Total | INT8 | FP32 |
2022-04-19 15:43:20 [INFO] +---------------------+-------+------+------+
2022-04-19 15:43:20 [INFO] |      Embedding      |   3   |  0   |  3   |
…
2022-04-19 15:43:35 [INFO]     'eval_steps_per_second': 7.54
2022-04-19 15:43:35 [INFO] }
2022-04-19 15:43:35 [INFO] metric: 0.7699999809265137
2022-04-19 15:43:35 [INFO] Throughput: 58.003 samples/sec
2022-04-19 15:43:35 [INFO] Fx trace of the entire model failed, We will conduct auto quantization
2022-04-19 15:43:36 [WARNING] Please note that calibration sampling size 100 isn't divisible exactly by batch size 8. So the real sampling size is 104.
=========== asym kl
PyTorchFXModel(
  (_model): BertForMultipleChoice(
    (bert): BertModel(
      (embeddings): BertEmbeddings(
        (word_embeddings): GraphModule(
          (module): Embedding(30522, 768, padding_idx=0)
        )
        (position_embeddings): GraphModule(
          (module): Embedding(512, 768)
        )
        (token_type_embeddings): GraphModule(
          (module): Embedding(2, 768)
        )
        (LayerNorm): GraphModule(
          (module): LayerNorm((768,), eps=1e-12, elementwise_affine=True)
        )
        (dropout): Dropout(p=0.1, inplace=False)
      )
      (encoder): BertEncoder(
        (layer): ModuleList(
          (0): BertLayer(
            (attention): BertAttention(
              (self): BertSelfAttention(
                (query): GraphModule(
                  (module): Linear(in_features=768, out_features=768, bias=True)
                )
                (key): GraphModule(
                  (module): Linear(in_features=768, out_features=768, bias=True)
                )
                (value): GraphModule(
                  (module): Linear(in_features=768, out_features=768, bias=True)
                )
                (dropout): Dropout(p=0.1, inplace=False)
              )
              (output): GraphModule(
                (dense): Linear(in_features=768, out_features=768, bias=True)
                (dropout): Dropout(p=0.1, inplace=False)
                (LayerNorm): LayerNorm((768,), eps=1e-12, elementwise_affine=True)
              )
            )
            (intermediate): GraphModule(
              (dense): Linear(in_features=768, out_features=3072, bias=True)
            )
            (output): GraphModule(
              (dense): Linear(in_features=3072, out_features=768, bias=True)
              (dropout): Dropout(p=0.1, inplace=False)
              (LayerNorm): LayerNorm((768,), eps=1e-12, elementwise_affine=True)
            )
          )
          (1): BertLayer(
            (attention): BertAttention(
              (self): BertSelfAttention(
                (query): GraphModule(
                  (module): Linear(in_features=768, out_features=768, bias=True)
                )
                (key): GraphModule(
                  (module): Linear(in_features=768, out_features=768, bias=True)
                )
                (value): GraphModule(
                  (module): Linear(in_features=768, out_features=768, bias=True)
                )
                (dropout): Dropout(p=0.1, inplace=False)
              )
              (output): GraphModule(
                (dense): Linear(in_features=768, out_features=768, bias=True)
                (dropout): Dropout(p=0.1, inplace=False)
                (LayerNorm): LayerNorm((768,), eps=1e-12, elementwise_affine=True)
              )
            )
            (intermediate): GraphModule(
              (dense): QuantizedLinear(in_features=768, out_features=3072, scale=0.0960511639714241, zero_point=173, qscheme=torch.per_channel_affine)
            )
            (output): GraphModule(
              (dense): Linear(in_features=3072, out_features=768, bias=True)
              (dropout): Dropout(p=0.1, inplace=False)
              (LayerNorm): LayerNorm((768,), eps=1e-12, elementwise_affine=True)
            )
          )
          (2): BertLayer(
            (attention): BertAttention(
              (self): BertSelfAttention(
                (query): GraphModule(
                  (module): Linear(in_features=768, out_features=768, bias=True)
                )
                (key): GraphModule(
                  (module): Linear(in_features=768, out_features=768, bias=True)
                )
                (value): GraphModule(
                  (module): Linear(in_features=768, out_features=768, bias=True)
                )
                (dropout): Dropout(p=0.1, inplace=False)
              )
              (output): GraphModule(
                (dense): Linear(in_features=768, out_features=768, bias=True)
                (dropout): Dropout(p=0.1, inplace=False)
                (LayerNorm): LayerNorm((768,), eps=1e-12, elementwise_affine=True)
              )
            )
            (intermediate): GraphModule(
              (dense): Linear(in_features=768, out_features=3072, bias=True)
            )
            (output): GraphModule(
              (dense): Linear(in_features=3072, out_features=768, bias=True)
              (dropout): Dropout(p=0.1, inplace=False)
              (LayerNorm): LayerNorm((768,), eps=1e-12, elementwise_affine=True)
            )
          )
          (3): BertLayer(
            (attention): BertAttention(
              (self): BertSelfAttention(
                (query): GraphModule(
                  (module): Linear(in_features=768, out_features=768, bias=True)
                )
                (key): GraphModule(
                  (module): Linear(in_features=768, out_features=768, bias=True)
                )
                (value): GraphModule(
                  (module): Linear(in_features=768, out_features=768, bias=True)
                )
                (dropout): Dropout(p=0.1, inplace=False)
              )
              (output): GraphModule(
                (dense): Linear(in_features=768, out_features=768, bias=True)
                (dropout): Dropout(p=0.1, inplace=False)
                (LayerNorm): LayerNorm((768,), eps=1e-12, elementwise_affine=True)
              )
            )
            (intermediate): GraphModule(
              (dense): Linear(in_features=768, out_features=3072, bias=True)
            )
            (output): GraphModule(
              (dense): Linear(in_features=3072, out_features=768, bias=True)
              (dropout): Dropout(p=0.1, inplace=False)
              (LayerNorm): LayerNorm((768,), eps=1e-12, elementwise_affine=True)
            )
          )
          (4): BertLayer(
            (attention): BertAttention(
              (self): BertSelfAttention(
                (query): GraphModule(
                  (module): Linear(in_features=768, out_features=768, bias=True)
                )
                (key): GraphModule(
                  (module): Linear(in_features=768, out_features=768, bias=True)
                )
                (value): GraphModule(
                  (module): Linear(in_features=768, out_features=768, bias=True)
                )
                (dropout): Dropout(p=0.1, inplace=False)
              )
              (output): GraphModule(
                (dense): Linear(in_features=768, out_features=768, bias=True)
                (dropout): Dropout(p=0.1, inplace=False)
                (LayerNorm): LayerNorm((768,), eps=1e-12, elementwise_affine=True)
              )
            )
            (intermediate): GraphModule(
              (dense): Linear(in_features=768, out_features=3072, bias=True)
            )
            (output): GraphModule(
              (dense): Linear(in_features=3072, out_features=768, bias=True)
              (dropout): Dropout(p=0.1, inplace=False)
              (LayerNorm): LayerNorm((768,), eps=1e-12, elementwise_affine=True)
            )
          )
          (5): BertLayer(
            (attention): BertAttention(
              (self): BertSelfAttention(
                (query): GraphModule(
                  (module): Linear(in_features=768, out_features=768, bias=True)
                )
                (key): GraphModule(
                  (module): Linear(in_features=768, out_features=768, bias=True)
                )
                (value): GraphModule(
                  (module): Linear(in_features=768, out_features=768, bias=True)
                )
                (dropout): Dropout(p=0.1, inplace=False)
              )
              (output): GraphModule(
                (dense): Linear(in_features=768, out_features=768, bias=True)
                (dropout): Dropout(p=0.1, inplace=False)
                (LayerNorm): LayerNorm((768,), eps=1e-12, elementwise_affine=True)
              )
            )
            (intermediate): GraphModule(
              (dense): Linear(in_features=768, out_features=3072, bias=True)
            )
            (output): GraphModule(
              (dense): Linear(in_features=3072, out_features=768, bias=True)
              (dropout): Dropout(p=0.1, inplace=False)
              (LayerNorm): LayerNorm((768,), eps=1e-12, elementwise_affine=True)
            )
          )
          (6): BertLayer(
            (attention): BertAttention(
              (self): BertSelfAttention(
                (query): GraphModule(
                  (module): Linear(in_features=768, out_features=768, bias=True)
                )
                (key): GraphModule(
                  (module): Linear(in_features=768, out_features=768, bias=True)
                )
                (value): GraphModule(
                  (module): Linear(in_features=768, out_features=768, bias=True)
                )
                (dropout): Dropout(p=0.1, inplace=False)
              )
              (output): GraphModule(
                (dense): Linear(in_features=768, out_features=768, bias=True)
                (dropout): Dropout(p=0.1, inplace=False)
                (LayerNorm): LayerNorm((768,), eps=1e-12, elementwise_affine=True)
              )
            )
            (intermediate): GraphModule(
              (dense): Linear(in_features=768, out_features=3072, bias=True)
            )
            (output): GraphModule(
              (dense): Linear(in_features=3072, out_features=768, bias=True)
              (dropout): Dropout(p=0.1, inplace=False)
              (LayerNorm): LayerNorm((768,), eps=1e-12, elementwise_affine=True)
            )
          )
          (7): BertLayer(
            (attention): BertAttention(
              (self): BertSelfAttention(
                (query): GraphModule(
                  (module): Linear(in_features=768, out_features=768, bias=True)
                )
                (key): GraphModule(
                  (module): Linear(in_features=768, out_features=768, bias=True)
                )
                (value): GraphModule(
                  (module): Linear(in_features=768, out_features=768, bias=True)
                )
                (dropout): Dropout(p=0.1, inplace=False)
              )
              (output): GraphModule(
                (dense): Linear(in_features=768, out_features=768, bias=True)
                (dropout): Dropout(p=0.1, inplace=False)
                (LayerNorm): LayerNorm((768,), eps=1e-12, elementwise_affine=True)
              )
            )
            (intermediate): GraphModule(
              (dense): Linear(in_features=768, out_features=3072, bias=True)
            )
            (output): GraphModule(
              (dense): Linear(in_features=3072, out_features=768, bias=True)
              (dropout): Dropout(p=0.1, inplace=False)
              (LayerNorm): LayerNorm((768,), eps=1e-12, elementwise_affine=True)
            )
          )
          (8): BertLayer(
            (attention): BertAttention(
              (self): BertSelfAttention(
                (query): GraphModule(
                  (module): Linear(in_features=768, out_features=768, bias=True)
                )
                (key): GraphModule(
                  (module): Linear(in_features=768, out_features=768, bias=True)
                )
                (value): GraphModule(
                  (module): Linear(in_features=768, out_features=768, bias=True)
                )
                (dropout): Dropout(p=0.1, inplace=False)
              )
              (output): GraphModule(
                (dense): Linear(in_features=768, out_features=768, bias=True)
                (dropout): Dropout(p=0.1, inplace=False)
                (LayerNorm): LayerNorm((768,), eps=1e-12, elementwise_affine=True)
              )
            )
            (intermediate): GraphModule(
              (dense): Linear(in_features=768, out_features=3072, bias=True)
            )
            (output): GraphModule(
              (dense): Linear(in_features=3072, out_features=768, bias=True)
              (dropout): Dropout(p=0.1, inplace=False)
              (LayerNorm): LayerNorm((768,), eps=1e-12, elementwise_affine=True)
            )
          )
          (9): BertLayer(
            (attention): BertAttention(
              (self): BertSelfAttention(
                (query): GraphModule(
                  (module): Linear(in_features=768, out_features=768, bias=True)
                )
                (key): GraphModule(
                  (module): Linear(in_features=768, out_features=768, bias=True)
                )
                (value): GraphModule(
                  (module): Linear(in_features=768, out_features=768, bias=True)
                )
                (dropout): Dropout(p=0.1, inplace=False)
              )
              (output): GraphModule(
                (dense): Linear(in_features=768, out_features=768, bias=True)
                (dropout): Dropout(p=0.1, inplace=False)
                (LayerNorm): LayerNorm((768,), eps=1e-12, elementwise_affine=True)
              )
            )
            (intermediate): GraphModule(
              (dense): Linear(in_features=768, out_features=3072, bias=True)
            )
            (output): GraphModule(
              (dense): Linear(in_features=3072, out_features=768, bias=True)
              (dropout): Dropout(p=0.1, inplace=False)
              (LayerNorm): LayerNorm((768,), eps=1e-12, elementwise_affine=True)
            )
          )
          (10): BertLayer(
            (attention): BertAttention(
              (self): BertSelfAttention(
                (query): GraphModule(
                  (module): Linear(in_features=768, out_features=768, bias=True)
                )
                (key): GraphModule(
                  (module): Linear(in_features=768, out_features=768, bias=True)
                )
                (value): GraphModule(
                  (module): Linear(in_features=768, out_features=768, bias=True)
                )
                (dropout): Dropout(p=0.1, inplace=False)
              )
              (output): GraphModule(
                (dense): Linear(in_features=768, out_features=768, bias=True)
                (dropout): Dropout(p=0.1, inplace=False)
                (LayerNorm): LayerNorm((768,), eps=1e-12, elementwise_affine=True)
              )
            )
            (intermediate): GraphModule(
              (dense): Linear(in_features=768, out_features=3072, bias=True)
            )
            (output): GraphModule(
              (dense): Linear(in_features=3072, out_features=768, bias=True)
              (dropout): Dropout(p=0.1, inplace=False)
              (LayerNorm): LayerNorm((768,), eps=1e-12, elementwise_affine=True)
            )
          )
          (11): BertLayer(
            (attention): BertAttention(
              (self): BertSelfAttention(
                (query): GraphModule(
                  (module): Linear(in_features=768, out_features=768, bias=True)
                )
                (key): GraphModule(
                  (module): Linear(in_features=768, out_features=768, bias=True)
                )
                (value): GraphModule(
                  (module): Linear(in_features=768, out_features=768, bias=True)
                )
                (dropout): Dropout(p=0.1, inplace=False)
              )
              (output): GraphModule(
                (dense): Linear(in_features=768, out_features=768, bias=True)
                (dropout): Dropout(p=0.1, inplace=False)
                (LayerNorm): LayerNorm((768,), eps=1e-12, elementwise_affine=True)
              )
            )
            (intermediate): GraphModule(
              (dense): Linear(in_features=768, out_features=3072, bias=True)
            )
            (output): GraphModule(
              (dense): Linear(in_features=3072, out_features=768, bias=True)
              (dropout): Dropout(p=0.1, inplace=False)
              (LayerNorm): LayerNorm((768,), eps=1e-12, elementwise_affine=True)
            )
          )
        )
      )
      (pooler): GraphModule(
        (dense): Linear(in_features=768, out_features=768, bias=True)
        (activation): Tanh()
      )
    )
    (dropout): Dropout(p=0.1, inplace=False)
    (classifier): GraphModule(
      (module): Linear(in_features=768, out_features=1, bias=True)
    )
  )
)2022-04-19 15:43:39 [INFO] |*********Mixed Precision Statistics********|
2022-04-19 15:43:39 [INFO] +---------------------+-------+------+------+
2022-04-19 15:43:39 [INFO] |       Op Type       | Total | INT8 | FP32 |
2022-04-19 15:43:39 [INFO] +---------------------+-------+------+------+
2022-04-19 15:43:39 [INFO] |      Embedding      |   3   |  0   |  3   |
…
2022-04-19 15:43:40 [INFO]     'eval_steps_per_second': 7.533
2022-04-19 15:43:40 [INFO] }
2022-04-19 15:43:40 [INFO] metric: 0.7699999809265137
2022-04-19 15:43:40 [INFO] Throughput: 57.945 samples/sec
2022-04-19 15:43:40 [INFO] Fx trace of the entire model failed, We will conduct auto quantization
2022-04-19 15:43:41 [WARNING] Please note that calibration sampling size 100 isn't divisible exactly by batch size 8. So the real sampling size is 104.
=========== asym kl
PyTorchFXModel(
  (_model): BertForMultipleChoice(
    (bert): BertModel(
      (embeddings): BertEmbeddings(
        (word_embeddings): GraphModule(
          (module): Embedding(30522, 768, padding_idx=0)
        )
        (position_embeddings): GraphModule(
          (module): Embedding(512, 768)
        )
        (token_type_embeddings): GraphModule(
          (module): Embedding(2, 768)
        )
        (LayerNorm): GraphModule(
          (module): LayerNorm((768,), eps=1e-12, elementwise_affine=True)
        )
        (dropout): Dropout(p=0.1, inplace=False)
      )
      (encoder): BertEncoder(
        (layer): ModuleList(
          (0): BertLayer(
            (attention): BertAttention(
              (self): BertSelfAttention(
                (query): GraphModule(
                  (module): Linear(in_features=768, out_features=768, bias=True)
                )
                (key): GraphModule(
                  (module): Linear(in_features=768, out_features=768, bias=True)
                )
                (value): GraphModule(
                  (module): Linear(in_features=768, out_features=768, bias=True)
                )
                (dropout): Dropout(p=0.1, inplace=False)
              )
              (output): GraphModule(
                (dense): Linear(in_features=768, out_features=768, bias=True)
                (dropout): Dropout(p=0.1, inplace=False)
                (LayerNorm): LayerNorm((768,), eps=1e-12, elementwise_affine=True)
              )
            )
            (intermediate): GraphModule(
              (dense): Linear(in_features=768, out_features=3072, bias=True)
            )
            (output): GraphModule(
              (dense): Linear(in_features=3072, out_features=768, bias=True)
              (dropout): Dropout(p=0.1, inplace=False)
              (LayerNorm): LayerNorm((768,), eps=1e-12, elementwise_affine=True)
            )
          )
          (1): BertLayer(
            (attention): BertAttention(
              (self): BertSelfAttention(
                (query): GraphModule(
                  (module): Linear(in_features=768, out_features=768, bias=True)
                )
                (key): GraphModule(
                  (module): Linear(in_features=768, out_features=768, bias=True)
                )
                (value): GraphModule(
                  (module): Linear(in_features=768, out_features=768, bias=True)
                )
                (dropout): Dropout(p=0.1, inplace=False)
              )
              (output): GraphModule(
                (dense): Linear(in_features=768, out_features=768, bias=True)
                (dropout): Dropout(p=0.1, inplace=False)
                (LayerNorm): LayerNorm((768,), eps=1e-12, elementwise_affine=True)
              )
            )
            (intermediate): GraphModule(
              (dense): Linear(in_features=768, out_features=3072, bias=True)
            )
            (output): GraphModule(
              (dense): QuantizedLinear(in_features=3072, out_features=768, scale=0.15641142427921295, zero_point=223, qscheme=torch.per_channel_affine)
              (dropout): Dropout(p=0.1, inplace=False)
              (LayerNorm): LayerNorm((768,), eps=1e-12, elementwise_affine=True)
            )
          )
          (2): BertLayer(
            (attention): BertAttention(
              (self): BertSelfAttention(
                (query): GraphModule(
                  (module): Linear(in_features=768, out_features=768, bias=True)
                )
                (key): GraphModule(
                  (module): Linear(in_features=768, out_features=768, bias=True)
                )
                (value): GraphModule(
                  (module): Linear(in_features=768, out_features=768, bias=True)
                )
                (dropout): Dropout(p=0.1, inplace=False)
              )
              (output): GraphModule(
                (dense): Linear(in_features=768, out_features=768, bias=True)
                (dropout): Dropout(p=0.1, inplace=False)
                (LayerNorm): LayerNorm((768,), eps=1e-12, elementwise_affine=True)
              )
            )
            (intermediate): GraphModule(
              (dense): Linear(in_features=768, out_features=3072, bias=True)
            )
            (output): GraphModule(
              (dense): Linear(in_features=3072, out_features=768, bias=True)
              (dropout): Dropout(p=0.1, inplace=False)
              (LayerNorm): LayerNorm((768,), eps=1e-12, elementwise_affine=True)
            )
          )
          (3): BertLayer(
            (attention): BertAttention(
              (self): BertSelfAttention(
                (query): GraphModule(
                  (module): Linear(in_features=768, out_features=768, bias=True)
                )
                (key): GraphModule(
                  (module): Linear(in_features=768, out_features=768, bias=True)
                )
                (value): GraphModule(
                  (module): Linear(in_features=768, out_features=768, bias=True)
                )
                (dropout): Dropout(p=0.1, inplace=False)
              )
              (output): GraphModule(
                (dense): Linear(in_features=768, out_features=768, bias=True)
                (dropout): Dropout(p=0.1, inplace=False)
                (LayerNorm): LayerNorm((768,), eps=1e-12, elementwise_affine=True)
              )
            )
            (intermediate): GraphModule(
              (dense): Linear(in_features=768, out_features=3072, bias=True)
            )
            (output): GraphModule(
              (dense): Linear(in_features=3072, out_features=768, bias=True)
              (dropout): Dropout(p=0.1, inplace=False)
              (LayerNorm): LayerNorm((768,), eps=1e-12, elementwise_affine=True)
            )
          )
          (4): BertLayer(
            (attention): BertAttention(
              (self): BertSelfAttention(
                (query): GraphModule(
                  (module): Linear(in_features=768, out_features=768, bias=True)
                )
                (key): GraphModule(
                  (module): Linear(in_features=768, out_features=768, bias=True)
                )
                (value): GraphModule(
                  (module): Linear(in_features=768, out_features=768, bias=True)
                )
                (dropout): Dropout(p=0.1, inplace=False)
              )
              (output): GraphModule(
                (dense): Linear(in_features=768, out_features=768, bias=True)
                (dropout): Dropout(p=0.1, inplace=False)
                (LayerNorm): LayerNorm((768,), eps=1e-12, elementwise_affine=True)
              )
            )
            (intermediate): GraphModule(
              (dense): Linear(in_features=768, out_features=3072, bias=True)
            )
            (output): GraphModule(
              (dense): Linear(in_features=3072, out_features=768, bias=True)
              (dropout): Dropout(p=0.1, inplace=False)
              (LayerNorm): LayerNorm((768,), eps=1e-12, elementwise_affine=True)
            )
          )
          (5): BertLayer(
            (attention): BertAttention(
              (self): BertSelfAttention(
                (query): GraphModule(
                  (module): Linear(in_features=768, out_features=768, bias=True)
                )
                (key): GraphModule(
                  (module): Linear(in_features=768, out_features=768, bias=True)
                )
                (value): GraphModule(
                  (module): Linear(in_features=768, out_features=768, bias=True)
                )
                (dropout): Dropout(p=0.1, inplace=False)
              )
              (output): GraphModule(
                (dense): Linear(in_features=768, out_features=768, bias=True)
                (dropout): Dropout(p=0.1, inplace=False)
                (LayerNorm): LayerNorm((768,), eps=1e-12, elementwise_affine=True)
              )
            )
            (intermediate): GraphModule(
              (dense): Linear(in_features=768, out_features=3072, bias=True)
            )
            (output): GraphModule(
              (dense): Linear(in_features=3072, out_features=768, bias=True)
              (dropout): Dropout(p=0.1, inplace=False)
              (LayerNorm): LayerNorm((768,), eps=1e-12, elementwise_affine=True)
            )
          )
          (6): BertLayer(
            (attention): BertAttention(
              (self): BertSelfAttention(
                (query): GraphModule(
                  (module): Linear(in_features=768, out_features=768, bias=True)
                )
                (key): GraphModule(
                  (module): Linear(in_features=768, out_features=768, bias=True)
                )
                (value): GraphModule(
                  (module): Linear(in_features=768, out_features=768, bias=True)
                )
                (dropout): Dropout(p=0.1, inplace=False)
              )
              (output): GraphModule(
                (dense): Linear(in_features=768, out_features=768, bias=True)
                (dropout): Dropout(p=0.1, inplace=False)
                (LayerNorm): LayerNorm((768,), eps=1e-12, elementwise_affine=True)
              )
            )
            (intermediate): GraphModule(
              (dense): Linear(in_features=768, out_features=3072, bias=True)
            )
            (output): GraphModule(
              (dense): Linear(in_features=3072, out_features=768, bias=True)
              (dropout): Dropout(p=0.1, inplace=False)
              (LayerNorm): LayerNorm((768,), eps=1e-12, elementwise_affine=True)
            )
          )
          (7): BertLayer(
            (attention): BertAttention(
              (self): BertSelfAttention(
                (query): GraphModule(
                  (module): Linear(in_features=768, out_features=768, bias=True)
                )
                (key): GraphModule(
                  (module): Linear(in_features=768, out_features=768, bias=True)
                )
                (value): GraphModule(
                  (module): Linear(in_features=768, out_features=768, bias=True)
                )
                (dropout): Dropout(p=0.1, inplace=False)
              )
              (output): GraphModule(
                (dense): Linear(in_features=768, out_features=768, bias=True)
                (dropout): Dropout(p=0.1, inplace=False)
                (LayerNorm): LayerNorm((768,), eps=1e-12, elementwise_affine=True)
              )
            )
            (intermediate): GraphModule(
              (dense): Linear(in_features=768, out_features=3072, bias=True)
            )
            (output): GraphModule(
              (dense): Linear(in_features=3072, out_features=768, bias=True)
              (dropout): Dropout(p=0.1, inplace=False)
              (LayerNorm): LayerNorm((768,), eps=1e-12, elementwise_affine=True)
            )
          )
          (8): BertLayer(
            (attention): BertAttention(
              (self): BertSelfAttention(
                (query): GraphModule(
                  (module): Linear(in_features=768, out_features=768, bias=True)
                )
                (key): GraphModule(
                  (module): Linear(in_features=768, out_features=768, bias=True)
                )
                (value): GraphModule(
                  (module): Linear(in_features=768, out_features=768, bias=True)
                )
                (dropout): Dropout(p=0.1, inplace=False)
              )
              (output): GraphModule(
                (dense): Linear(in_features=768, out_features=768, bias=True)
…
                  (module): Linear(in_features=768, out_features=768, bias=True)
                )
                (value): GraphModule(
                  (module): Linear(in_features=768, out_features=768, bias=True)
                )
                (dropout): Dropout(p=0.1, inplace=False)
              )
              (output): GraphModule(
                (dense): Linear(in_features=768, out_features=768, bias=True)
                (dropout): Dropout(p=0.1, inplace=False)
                (LayerNorm): LayerNorm((768,), eps=1e-12, elementwise_affine=True)
              )
            )
            (intermediate): GraphModule(
              (dense): Linear(in_features=768, out_features=3072, bias=True)
            )
            (output): GraphModule(
              (dense): Linear(in_features=3072, out_features=768, bias=True)
              (dropout): Dropout(p=0.1, inplace=False)
              (LayerNorm): LayerNorm((768,), eps=1e-12, elementwise_affine=True)
            )
          )
          (1): BertLayer(
            (attention): BertAttention(
              (self): BertSelfAttention(
                (query): GraphModule(
                  (module): Linear(in_features=768, out_features=768, bias=True)
                )
                (key): GraphModule(
                  (module): Linear(in_features=768, out_features=768, bias=True)
                )
                (value): GraphModule(
                  (module): Linear(in_features=768, out_features=768, bias=True)
                )
                (dropout): Dropout(p=0.1, inplace=False)
              )
              (output): GraphModule(
                (dense): Linear(in_features=768, out_features=768, bias=True)
                (dropout): Dropout(p=0.1, inplace=False)
                (LayerNorm): LayerNorm((768,), eps=1e-12, elementwise_affine=True)
              )
            )
            (intermediate): GraphModule(
              (dense): Linear(in_features=768, out_features=3072, bias=True)
            )
            (output): GraphModule(
              (dense): Linear(in_features=3072, out_features=768, bias=True)
              (dropout): Dropout(p=0.1, inplace=False)
              (LayerNorm): LayerNorm((768,), eps=1e-12, elementwise_affine=True)
            )
          )
          (2): BertLayer(
            (attention): BertAttention(
              (self): BertSelfAttention(
                (query): GraphModule(
                  (module): Linear(in_features=768, out_features=768, bias=True)
                )
                (key): GraphModule(
                  (module): Linear(in_features=768, out_features=768, bias=True)
                )
                (value): GraphModule(
                  (module): Linear(in_features=768, out_features=768, bias=True)
                )
                (dropout): Dropout(p=0.1, inplace=False)
              )
              (output): GraphModule(
                (dense): Linear(in_features=768, out_features=768, bias=True)
                (dropout): Dropout(p=0.1, inplace=False)
                (LayerNorm): LayerNorm((768,), eps=1e-12, elementwise_affine=True)
              )
            )
            (intermediate): GraphModule(
              (dense): Linear(in_features=768, out_features=3072, bias=True)
            )
            (output): GraphModule(
              (dense): Linear(in_features=3072, out_features=768, bias=True)
              (dropout): Dropout(p=0.1, inplace=False)
              (LayerNorm): LayerNorm((768,), eps=1e-12, elementwise_affine=True)
            )
          )
          (3): BertLayer(
            (attention): BertAttention(
              (self): BertSelfAttention(
                (query): GraphModule(
                  (module): Linear(in_features=768, out_features=768, bias=True)
                )
                (key): GraphModule(
                  (module): Linear(in_features=768, out_features=768, bias=True)
                )
                (value): GraphModule(
                  (module): Linear(in_features=768, out_features=768, bias=True)
                )
                (dropout): Dropout(p=0.1, inplace=False)
              )
              (output): GraphModule(
                (dense): Linear(in_features=768, out_features=768, bias=True)
                (dropout): Dropout(p=0.1, inplace=False)
                (LayerNorm): LayerNorm((768,), eps=1e-12, elementwise_affine=True)
              )
            )
            (intermediate): GraphModule(
              (dense): Linear(in_features=768, out_features=3072, bias=True)
            )
            (output): GraphModule(
              (dense): Linear(in_features=3072, out_features=768, bias=True)
              (dropout): Dropout(p=0.1, inplace=False)
              (LayerNorm): LayerNorm((768,), eps=1e-12, elementwise_affine=True)
            )
          )
          (4): BertLayer(
            (attention): BertAttention(
              (self): BertSelfAttention(
                (query): GraphModule(
                  (module): Linear(in_features=768, out_features=768, bias=True)
                )
                (key): GraphModule(
                  (module): Linear(in_features=768, out_features=768, bias=True)
                )
                (value): GraphModule(
                  (module): Linear(in_features=768, out_features=768, bias=True)
                )
                (dropout): Dropout(p=0.1, inplace=False)
              )
              (output): GraphModule(
                (dense): Linear(in_features=768, out_features=768, bias=True)
                (dropout): Dropout(p=0.1, inplace=False)
                (LayerNorm): LayerNorm((768,), eps=1e-12, elementwise_affine=True)
              )
            )
            (intermediate): GraphModule(
              (dense): Linear(in_features=768, out_features=3072, bias=True)
            )
            (output): GraphModule(
              (dense): Linear(in_features=3072, out_features=768, bias=True)
              (dropout): Dropout(p=0.1, inplace=False)
              (LayerNorm): LayerNorm((768,), eps=1e-12, elementwise_affine=True)
            )
          )
          (5): BertLayer(
            (attention): BertAttention(
              (self): BertSelfAttention(
                (query): GraphModule(
                  (module): Linear(in_features=768, out_features=768, bias=True)
                )
                (key): GraphModule(
                  (module): Linear(in_features=768, out_features=768, bias=True)
                )
                (value): GraphModule(
                  (module): Linear(in_features=768, out_features=768, bias=True)
                )
                (dropout): Dropout(p=0.1, inplace=False)
              )
              (output): GraphModule(
                (dense): Linear(in_features=768, out_features=768, bias=True)
                (dropout): Dropout(p=0.1, inplace=False)
                (LayerNorm): LayerNorm((768,), eps=1e-12, elementwise_affine=True)
              )
            )
            (intermediate): GraphModule(
              (dense): Linear(in_features=768, out_features=3072, bias=True)
            )
            (output): GraphModule(
              (dense): Linear(in_features=3072, out_features=768, bias=True)
              (dropout): Dropout(p=0.1, inplace=False)
              (LayerNorm): LayerNorm((768,), eps=1e-12, elementwise_affine=True)
            )
          )
          (6): BertLayer(
            (attention): BertAttention(
              (self): BertSelfAttention(
                (query): GraphModule(
                  (module): Linear(in_features=768, out_features=768, bias=True)
                )
                (key): GraphModule(
                  (module): Linear(in_features=768, out_features=768, bias=True)
                )
                (value): GraphModule(
                  (module): Linear(in_features=768, out_features=768, bias=True)
                )
                (dropout): Dropout(p=0.1, inplace=False)
              )
              (output): GraphModule(
                (dense): Linear(in_features=768, out_features=768, bias=True)
                (dropout): Dropout(p=0.1, inplace=False)
                (LayerNorm): LayerNorm((768,), eps=1e-12, elementwise_affine=True)
              )
            )
            (intermediate): GraphModule(
              (dense): Linear(in_features=768, out_features=3072, bias=True)
            )
            (output): GraphModule(
              (dense): Linear(in_features=3072, out_features=768, bias=True)
              (dropout): Dropout(p=0.1, inplace=False)
              (LayerNorm): LayerNorm((768,), eps=1e-12, elementwise_affine=True)
            )
          )
          (7): BertLayer(
            (attention): BertAttention(
              (self): BertSelfAttention(
                (query): GraphModule(
                  (module): Linear(in_features=768, out_features=768, bias=True)
                )
                (key): GraphModule(
                  (module): Linear(in_features=768, out_features=768, bias=True)
                )
                (value): GraphModule(
                  (module): Linear(in_features=768, out_features=768, bias=True)
                )
                (dropout): Dropout(p=0.1, inplace=False)
              )
              (output): GraphModule(
                (dense): Linear(in_features=768, out_features=768, bias=True)
                (dropout): Dropout(p=0.1, inplace=False)
                (LayerNorm): LayerNorm((768,), eps=1e-12, elementwise_affine=True)
              )
            )
            (intermediate): GraphModule(
              (dense): Linear(in_features=768, out_features=3072, bias=True)
            )
            (output): GraphModule(
              (dense): Linear(in_features=3072, out_features=768, bias=True)
              (dropout): Dropout(p=0.1, inplace=False)
              (LayerNorm): LayerNorm((768,), eps=1e-12, elementwise_affine=True)
            )
          )
          (8): BertLayer(
            (attention): BertAttention(
              (self): BertSelfAttention(
                (query): GraphModule(
                  (module): Linear(in_features=768, out_features=768, bias=True)
                )
                (key): GraphModule(
                  (module): Linear(in_features=768, out_features=768, bias=True)
                )
                (value): GraphModule(
                  (module): Linear(in_features=768, out_features=768, bias=True)
                )
                (dropout): Dropout(p=0.1, inplace=False)
              )
              (output): GraphModule(
                (dense): Linear(in_features=768, out_features=768, bias=True)
                (dropout): Dropout(p=0.1, inplace=False)
                (LayerNorm): LayerNorm((768,), eps=1e-12, elementwise_affine=True)
              )
            )
            (intermediate): GraphModule(
              (dense): Linear(in_features=768, out_features=3072, bias=True)
            )
            (output): GraphModule(
              (dense): Linear(in_features=3072, out_features=768, bias=True)
              (dropout): Dropout(p=0.1, inplace=False)
              (LayerNorm): LayerNorm((768,), eps=1e-12, elementwise_affine=True)
            )
          )
          (9): BertLayer(
            (attention): BertAttention(
              (self): BertSelfAttention(
                (query): GraphModule(
                  (module): Linear(in_features=768, out_features=768, bias=True)
                )
                (key): GraphModule(
                  (module): Linear(in_features=768, out_features=768, bias=True)
                )
                (value): GraphModule(
                  (module): Linear(in_features=768, out_features=768, bias=True)
                )
                (dropout): Dropout(p=0.1, inplace=False)
              )
              (output): GraphModule(
                (dense): Linear(in_features=768, out_features=768, bias=True)
                (dropout): Dropout(p=0.1, inplace=False)
                (LayerNorm): LayerNorm((768,), eps=1e-12, elementwise_affine=True)
              )
            )
            (intermediate): GraphModule(
              (dense): Linear(in_features=768, out_features=3072, bias=True)
            )
            (output): GraphModule(
              (dense): Linear(in_features=3072, out_features=768, bias=True)
              (dropout): Dropout(p=0.1, inplace=False)
              (LayerNorm): LayerNorm((768,), eps=1e-12, elementwise_affine=True)
            )
          )
          (10): BertLayer(
            (attention): BertAttention(
              (self): BertSelfAttention(
                (query): GraphModule(
                  (module): Linear(in_features=768, out_features=768, bias=True)
                )
                (key): GraphModule(
                  (module): Linear(in_features=768, out_features=768, bias=True)
                )
                (value): GraphModule(
                  (module): Linear(in_features=768, out_features=768, bias=True)
                )
                (dropout): Dropout(p=0.1, inplace=False)
              )
              (output): GraphModule(
                (dense): Linear(in_features=768, out_features=768, bias=True)
                (dropout): Dropout(p=0.1, inplace=False)
                (LayerNorm): LayerNorm((768,), eps=1e-12, elementwise_affine=True)
              )
            )
            (intermediate): GraphModule(
              (dense): Linear(in_features=768, out_features=3072, bias=True)
            )
            (output): GraphModule(
              (dense): Linear(in_features=3072, out_features=768, bias=True)
              (dropout): Dropout(p=0.1, inplace=False)
              (LayerNorm): LayerNorm((768,), eps=1e-12, elementwise_affine=True)
            )
          )
          (11): BertLayer(
            (attention): BertAttention(
              (self): BertSelfAttention(
                (query): GraphModule(
                  (module): Linear(in_features=768, out_features=768, bias=True)
                )
                (key): GraphModule(
                  (module): Linear(in_features=768, out_features=768, bias=True)
                )
                (value): GraphModule(
                  (module): Linear(in_features=768, out_features=768, bias=True)
                )
                (dropout): Dropout(p=0.1, inplace=False)
              )
              (output): GraphModule(
                (dense): Linear(in_features=768, out_features=768, bias=True)
                (dropout): Dropout(p=0.1, inplace=False)
                (LayerNorm): LayerNorm((768,), eps=1e-12, elementwise_affine=True)
              )
            )
            (intermediate): GraphModule(
              (dense): Linear(in_features=768, out_features=3072, bias=True)
            )
            (output): GraphModule(
              (dense): QuantizedLinear(in_features=3072, out_features=768, scale=0.16209007799625397, zero_point=181, qscheme=torch.per_channel_affine)
              (dropout): Dropout(p=0.1, inplace=False)
              (LayerNorm): LayerNorm((768,), eps=1e-12, elementwise_affine=True)
            )
          )
        )
      )
      (pooler): GraphModule(
        (dense): Linear(in_features=768, out_features=768, bias=True)
        (activation): Tanh()
      )
    )
    (dropout): Dropout(p=0.1, inplace=False)
    (classifier): GraphModule(
      (module): Linear(in_features=768, out_features=1, bias=True)
    )
  )
)2022-04-19 15:48:20 [INFO] |*********Mixed Precision Statistics********|
2022-04-19 15:48:20 [INFO] +---------------------+-------+------+------+
2022-04-19 15:48:20 [INFO] |       Op Type       | Total | INT8 | FP32 |
2022-04-19 15:48:20 [INFO] +---------------------+-------+------+------+
2022-04-19 15:48:20 [INFO] |      Embedding      |   3   |  0   |  3   |
…
2022-04-19 15:48:22 [INFO]     'eval_steps_per_second': 7.428
2022-04-19 15:48:22 [INFO] }
2022-04-19 15:48:22 [INFO] metric: 0.7599999904632568
2022-04-19 15:48:22 [INFO] Throughput: 57.137 samples/sec
2022-04-19 15:48:22 [INFO] Fx trace of the entire model failed, We will conduct auto quantization
2022-04-19 15:48:22 [WARNING] Please note that calibration sampling size 100 isn't divisible exactly by batch size 8. So the real sampling size is 104.
=========== asym kl
PyTorchFXModel(
  (_model): BertForMultipleChoice(
    (bert): BertModel(
      (embeddings): BertEmbeddings(
        (word_embeddings): GraphModule(
          (module): Embedding(30522, 768, padding_idx=0)
        )
        (position_embeddings): GraphModule(
          (module): Embedding(512, 768)
        )
        (token_type_embeddings): GraphModule(
          (module): Embedding(2, 768)
        )
        (LayerNorm): GraphModule(
          (module): LayerNorm((768,), eps=1e-12, elementwise_affine=True)
        )
        (dropout): Dropout(p=0.1, inplace=False)
      )
      (encoder): BertEncoder(
        (layer): ModuleList(
          (0): BertLayer(
            (attention): BertAttention(
              (self): BertSelfAttention(
                (query): GraphModule(
                  (module): Linear(in_features=768, out_features=768, bias=True)
                )
                (key): GraphModule(
                  (module): Linear(in_features=768, out_features=768, bias=True)
                )
                (value): GraphModule(
                  (module): Linear(in_features=768, out_features=768, bias=True)
                )
                (dropout): Dropout(p=0.1, inplace=False)
              )
              (output): GraphModule(
                (dense): Linear(in_features=768, out_features=768, bias=True)
                (dropout): Dropout(p=0.1, inplace=False)
                (LayerNorm): LayerNorm((768,), eps=1e-12, elementwise_affine=True)
              )
            )
            (intermediate): GraphModule(
              (dense): Linear(in_features=768, out_features=3072, bias=True)
            )
            (output): GraphModule(
              (dense): Linear(in_features=3072, out_features=768, bias=True)
              (dropout): Dropout(p=0.1, inplace=False)
              (LayerNorm): LayerNorm((768,), eps=1e-12, elementwise_affine=True)
            )
          )
          (1): BertLayer(
            (attention): BertAttention(
              (self): BertSelfAttention(
                (query): GraphModule(
                  (module): Linear(in_features=768, out_features=768, bias=True)
                )
                (key): GraphModule(
                  (module): Linear(in_features=768, out_features=768, bias=True)
                )
                (value): GraphModule(
                  (module): Linear(in_features=768, out_features=768, bias=True)
                )
                (dropout): Dropout(p=0.1, inplace=False)
              )
              (output): GraphModule(
                (dense): Linear(in_features=768, out_features=768, bias=True)
                (dropout): Dropout(p=0.1, inplace=False)
                (LayerNorm): LayerNorm((768,), eps=1e-12, elementwise_affine=True)
              )
            )
            (intermediate): GraphModule(
              (dense): Linear(in_features=768, out_features=3072, bias=True)
            )
            (output): GraphModule(
              (dense): Linear(in_features=3072, out_features=768, bias=True)
              (dropout): Dropout(p=0.1, inplace=False)
              (LayerNorm): LayerNorm((768,), eps=1e-12, elementwise_affine=True)
            )
          )
          (2): BertLayer(
            (attention): BertAttention(
              (self): BertSelfAttention(
                (query): GraphModule(
                  (module): Linear(in_features=768, out_features=768, bias=True)
                )
                (key): GraphModule(
                  (module): Linear(in_features=768, out_features=768, bias=True)
                )
                (value): GraphModule(
                  (module): Linear(in_features=768, out_features=768, bias=True)
                )
                (dropout): Dropout(p=0.1, inplace=False)
              )
              (output): GraphModule(
                (dense): Linear(in_features=768, out_features=768, bias=True)
                (dropout): Dropout(p=0.1, inplace=False)
                (LayerNorm): LayerNorm((768,), eps=1e-12, elementwise_affine=True)
              )
            )
            (intermediate): GraphModule(
              (dense): Linear(in_features=768, out_features=3072, bias=True)
            )
            (output): GraphModule(
              (dense): Linear(in_features=3072, out_features=768, bias=True)
              (dropout): Dropout(p=0.1, inplace=False)
              (LayerNorm): LayerNorm((768,), eps=1e-12, elementwise_affine=True)
            )
          )
          (3): BertLayer(
            (attention): BertAttention(
              (self): BertSelfAttention(
                (query): GraphModule(
                  (module): Linear(in_features=768, out_features=768, bias=True)
                )
                (key): GraphModule(
                  (module): Linear(in_features=768, out_features=768, bias=True)
                )
                (value): GraphModule(
                  (module): Linear(in_features=768, out_features=768, bias=True)
                )
                (dropout): Dropout(p=0.1, inplace=False)
              )
              (output): GraphModule(
                (dense): Linear(in_features=768, out_features=768, bias=True)
                (dropout): Dropout(p=0.1, inplace=False)
                (LayerNorm): LayerNorm((768,), eps=1e-12, elementwise_affine=True)
              )
            )
            (intermediate): GraphModule(
              (dense): Linear(in_features=768, out_features=3072, bias=True)
            )
            (output): GraphModule(
              (dense): Linear(in_features=3072, out_features=768, bias=True)
              (dropout): Dropout(p=0.1, inplace=False)
              (LayerNorm): LayerNorm((768,), eps=1e-12, elementwise_affine=True)
            )
          )
          (4): BertLayer(
            (attention): BertAttention(
              (self): BertSelfAttention(
                (query): GraphModule(
                  (module): Linear(in_features=768, out_features=768, bias=True)
                )
                (key): GraphModule(
                  (module): Linear(in_features=768, out_features=768, bias=True)
                )
                (value): GraphModule(
                  (module): Linear(in_features=768, out_features=768, bias=True)
                )
                (dropout): Dropout(p=0.1, inplace=False)
              )
              (output): GraphModule(
                (dense): Linear(in_features=768, out_features=768, bias=True)
                (dropout): Dropout(p=0.1, inplace=False)
                (LayerNorm): LayerNorm((768,), eps=1e-12, elementwise_affine=True)
              )
            )
            (intermediate): GraphModule(
              (dense): Linear(in_features=768, out_features=3072, bias=True)
            )
            (output): GraphModule(
              (dense): Linear(in_features=3072, out_features=768, bias=True)
              (dropout): Dropout(p=0.1, inplace=False)
              (LayerNorm): LayerNorm((768,), eps=1e-12, elementwise_affine=True)
            )
          )
          (5): BertLayer(
            (attention): BertAttention(
              (self): BertSelfAttention(
                (query): GraphModule(
                  (module): Linear(in_features=768, out_features=768, bias=True)
                )
                (key): GraphModule(
                  (module): Linear(in_features=768, out_features=768, bias=True)
                )
                (value): GraphModule(
                  (module): Linear(in_features=768, out_features=768, bias=True)
                )
                (dropout): Dropout(p=0.1, inplace=False)
              )
              (output): GraphModule(
                (dense): Linear(in_features=768, out_features=768, bias=True)
                (dropout): Dropout(p=0.1, inplace=False)
                (LayerNorm): LayerNorm((768,), eps=1e-12, elementwise_affine=True)
              )
            )
            (intermediate): GraphModule(
              (dense): Linear(in_features=768, out_features=3072, bias=True)
            )
            (output): GraphModule(
              (dense): Linear(in_features=3072, out_features=768, bias=True)
              (dropout): Dropout(p=0.1, inplace=False)
              (LayerNorm): LayerNorm((768,), eps=1e-12, elementwise_affine=True)
            )
          )
          (6): BertLayer(
            (attention): BertAttention(
              (self): BertSelfAttention(
                (query): GraphModule(
                  (module): Linear(in_features=768, out_features=768, bias=True)
                )
                (key): GraphModule(
                  (module): Linear(in_features=768, out_features=768, bias=True)
                )
                (value): GraphModule(
                  (module): Linear(in_features=768, out_features=768, bias=True)
                )
                (dropout): Dropout(p=0.1, inplace=False)
              )
              (output): GraphModule(
                (dense): Linear(in_features=768, out_features=768, bias=True)
                (dropout): Dropout(p=0.1, inplace=False)
                (LayerNorm): LayerNorm((768,), eps=1e-12, elementwise_affine=True)
              )
            )
            (intermediate): GraphModule(
              (dense): Linear(in_features=768, out_features=3072, bias=True)
            )
            (output): GraphModule(
              (dense): Linear(in_features=3072, out_features=768, bias=True)
              (dropout): Dropout(p=0.1, inplace=False)
              (LayerNorm): LayerNorm((768,), eps=1e-12, elementwise_affine=True)
            )
          )
          (7): BertLayer(
            (attention): BertAttention(
              (self): BertSelfAttention(
                (query): GraphModule(
                  (module): Linear(in_features=768, out_features=768, bias=True)
                )
                (key): GraphModule(
                  (module): Linear(in_features=768, out_features=768, bias=True)
                )
                (value): GraphModule(
                  (module): Linear(in_features=768, out_features=768, bias=True)
                )
                (dropout): Dropout(p=0.1, inplace=False)
              )
              (output): GraphModule(
                (dense): Linear(in_features=768, out_features=768, bias=True)
                (dropout): Dropout(p=0.1, inplace=False)
                (LayerNorm): LayerNorm((768,), eps=1e-12, elementwise_affine=True)
              )
            )
            (intermediate): GraphModule(
              (dense): Linear(in_features=768, out_features=3072, bias=True)
            )
            (output): GraphModule(
              (dense): Linear(in_features=3072, out_features=768, bias=True)
              (dropout): Dropout(p=0.1, inplace=False)
              (LayerNorm): LayerNorm((768,), eps=1e-12, elementwise_affine=True)
            )
          )
          (8): BertLayer(
            (attention): BertAttention(
              (self): BertSelfAttention(
                (query): GraphModule(
                  (module): Linear(in_features=768, out_features=768, bias=True)
                )
                (key): GraphModule(
                  (module): Linear(in_features=768, out_features=768, bias=True)
                )
                (value): GraphModule(
                  (module): Linear(in_features=768, out_features=768, bias=True)
                )
                (dropout): Dropout(p=0.1, inplace=False)
              )
              (output): GraphModule(
                (dense): Linear(in_features=768, out_features=768, bias=True)
                (dropout): Dropout(p=0.1, inplace=False)
                (LayerNorm): LayerNorm((768,), eps=1e-12, elementwise_affine=True)
              )
            )
            (intermediate): GraphModule(
              (dense): Linear(in_features=768, out_features=3072, bias=True)
            )
            (output): GraphModule(
              (dense): Linear(in_features=3072, out_features=768, bias=True)
              (dropout): Dropout(p=0.1, inplace=False)
              (LayerNorm): LayerNorm((768,), eps=1e-12, elementwise_affine=True)
            )
          )
          (9): BertLayer(
            (attention): BertAttention(
              (self): BertSelfAttention(
                (query): GraphModule(
                  (module): Linear(in_features=768, out_features=768, bias=True)
                )
                (key): GraphModule(
                  (module): Linear(in_features=768, out_features=768, bias=True)
                )
                (value): GraphModule(
                  (module): Linear(in_features=768, out_features=768, bias=True)
                )
                (dropout): Dropout(p=0.1, inplace=False)
              )
              (output): GraphModule(
                (dense): Linear(in_features=768, out_features=768, bias=True)
                (dropout): Dropout(p=0.1, inplace=False)
                (LayerNorm): LayerNorm((768,), eps=1e-12, elementwise_affine=True)
              )
            )
            (intermediate): GraphModule(
              (dense): Linear(in_features=768, out_features=3072, bias=True)
            )
            (output): GraphModule(
              (dense): Linear(in_features=3072, out_features=768, bias=True)
              (dropout): Dropout(p=0.1, inplace=False)
              (LayerNorm): LayerNorm((768,), eps=1e-12, elementwise_affine=True)
            )
          )
          (10): BertLayer(
            (attention): BertAttention(
              (self): BertSelfAttention(
                (query): GraphModule(
                  (module): Linear(in_features=768, out_features=768, bias=True)
                )
                (key): GraphModule(
                  (module): Linear(in_features=768, out_features=768, bias=True)
                )
                (value): GraphModule(
                  (module): Linear(in_features=768, out_features=768, bias=True)
                )
                (dropout): Dropout(p=0.1, inplace=False)
              )
              (output): GraphModule(
                (dense): Linear(in_features=768, out_features=768, bias=True)
                (dropout): Dropout(p=0.1, inplace=False)
                (LayerNorm): LayerNorm((768,), eps=1e-12, elementwise_affine=True)
              )
            )
            (intermediate): GraphModule(
              (dense): Linear(in_features=768, out_features=3072, bias=True)
            )
            (output): GraphModule(
              (dense): Linear(in_features=3072, out_features=768, bias=True)
              (dropout): Dropout(p=0.1, inplace=False)
              (LayerNorm): LayerNorm((768,), eps=1e-12, elementwise_affine=True)
            )
          )
          (11): BertLayer(
            (attention): BertAttention(
              (self): BertSelfAttention(
                (query): GraphModule(
                  (module): Linear(in_features=768, out_features=768, bias=True)
                )
                (key): GraphModule(
                  (module): Linear(in_features=768, out_features=768, bias=True)
                )
                (value): GraphModule(
                  (module): Linear(in_features=768, out_features=768, bias=True)
                )
                (dropout): Dropout(p=0.1, inplace=False)
              )
              (output): GraphModule(
                (dense): Linear(in_features=768, out_features=768, bias=True)
                (dropout): Dropout(p=0.1, inplace=False)
                (LayerNorm): LayerNorm((768,), eps=1e-12, elementwise_affine=True)
              )
            )
            (intermediate): GraphModule(
              (dense): Linear(in_features=768, out_features=3072, bias=True)
            )
            (output): GraphModule(
              (dense): Linear(in_features=3072, out_features=768, bias=True)
              (dropout): Dropout(p=0.1, inplace=False)
              (LayerNorm): LayerNorm((768,), eps=1e-12, elementwise_affine=True)
            )
          )
        )
      )
      (pooler): GraphModule(
        (dense): QuantizedLinear(in_features=768, out_features=768, scale=0.08549576997756958, zero_point=129, qscheme=torch.per_channel_affine)
        (activation): Tanh()
      )
    )
    (dropout): Dropout(p=0.1, inplace=False)
    (classifier): GraphModule(
      (module): Linear(in_features=768, out_features=1, bias=True)
    )
  )
)2022-04-19 15:48:24 [INFO] |*********Mixed Precision Statistics********|
2022-04-19 15:48:24 [INFO] +---------------------+-------+------+------+
2022-04-19 15:48:24 [INFO] |       Op Type       | Total | INT8 | FP32 |
2022-04-19 15:48:24 [INFO] +---------------------+-------+------+------+
2022-04-19 15:48:24 [INFO] |      Embedding      |   3   |  0   |  3   |
…
2022-04-19 15:48:26 [INFO]     'eval_steps_per_second': 7.502
2022-04-19 15:48:26 [INFO] }
2022-04-19 15:48:26 [INFO] metric: 0.7599999904632568
2022-04-19 15:48:26 [INFO] Throughput: 57.705 samples/sec
2022-04-19 15:48:26 [INFO] Fx trace of the entire model failed, We will conduct auto quantization
2022-04-19 15:48:26 [WARNING] Please note that calibration sampling size 100 isn't divisible exactly by batch size 8. So the real sampling size is 104.
=========== asym kl
PyTorchFXModel(
  (_model): BertForMultipleChoice(
    (bert): BertModel(
      (embeddings): BertEmbeddings(
        (word_embeddings): GraphModule(
          (module): Embedding(30522, 768, padding_idx=0)
        )
        (position_embeddings): GraphModule(
          (module): Embedding(512, 768)
        )
        (token_type_embeddings): GraphModule(
          (module): Embedding(2, 768)
        )
        (LayerNorm): GraphModule(
          (module): LayerNorm((768,), eps=1e-12, elementwise_affine=True)
        )
        (dropout): Dropout(p=0.1, inplace=False)
      )
      (encoder): BertEncoder(
        (layer): ModuleList(
          (0): BertLayer(
            (attention): BertAttention(
              (self): BertSelfAttention(
                (query): GraphModule(
                  (module): Linear(in_features=768, out_features=768, bias=True)
                )
                (key): GraphModule(
                  (module): Linear(in_features=768, out_features=768, bias=True)
                )
                (value): GraphModule(
                  (module): Linear(in_features=768, out_features=768, bias=True)
                )
                (dropout): Dropout(p=0.1, inplace=False)
              )
              (output): GraphModule(
                (dense): Linear(in_features=768, out_features=768, bias=True)
                (dropout): Dropout(p=0.1, inplace=False)
                (LayerNorm): LayerNorm((768,), eps=1e-12, elementwise_affine=True)
              )
            )
            (intermediate): GraphModule(
              (dense): Linear(in_features=768, out_features=3072, bias=True)
            )
            (output): GraphModule(
              (dense): Linear(in_features=3072, out_features=768, bias=True)
              (dropout): Dropout(p=0.1, inplace=False)
              (LayerNorm): LayerNorm((768,), eps=1e-12, elementwise_affine=True)
            )
          )
          (1): BertLayer(
            (attention): BertAttention(
              (self): BertSelfAttention(
                (query): GraphModule(
                  (module): Linear(in_features=768, out_features=768, bias=True)
                )
                (key): GraphModule(
                  (module): Linear(in_features=768, out_features=768, bias=True)
                )
                (value): GraphModule(
                  (module): Linear(in_features=768, out_features=768, bias=True)
                )
                (dropout): Dropout(p=0.1, inplace=False)
              )
              (output): GraphModule(
                (dense): Linear(in_features=768, out_features=768, bias=True)
                (dropout): Dropout(p=0.1, inplace=False)
                (LayerNorm): LayerNorm((768,), eps=1e-12, elementwise_affine=True)
              )
            )
            (intermediate): GraphModule(
              (dense): Linear(in_features=768, out_features=3072, bias=True)
            )
            (output): GraphModule(
              (dense): Linear(in_features=3072, out_features=768, bias=True)
              (dropout): Dropout(p=0.1, inplace=False)
              (LayerNorm): LayerNorm((768,), eps=1e-12, elementwise_affine=True)
            )
          )
          (2): BertLayer(
            (attention): BertAttention(
              (self): BertSelfAttention(
                (query): GraphModule(
                  (module): Linear(in_features=768, out_features=768, bias=True)
                )
                (key): GraphModule(
                  (module): Linear(in_features=768, out_features=768, bias=True)
                )
                (value): GraphModule(
                  (module): Linear(in_features=768, out_features=768, bias=True)
                )
                (dropout): Dropout(p=0.1, inplace=False)
              )
              (output): GraphModule(
                (dense): Linear(in_features=768, out_features=768, bias=True)
                (dropout): Dropout(p=0.1, inplace=False)
                (LayerNorm): LayerNorm((768,), eps=1e-12, elementwise_affine=True)
              )
            )
            (intermediate): GraphModule(
              (dense): Linear(in_features=768, out_features=3072, bias=True)
            )
            (output): GraphModule(
              (dense): Linear(in_features=3072, out_features=768, bias=True)
              (dropout): Dropout(p=0.1, inplace=False)
              (LayerNorm): LayerNorm((768,), eps=1e-12, elementwise_affine=True)
            )
          )
          (3): BertLayer(
            (attention): BertAttention(
              (self): BertSelfAttention(
                (query): GraphModule(
                  (module): Linear(in_features=768, out_features=768, bias=True)
                )
                (key): GraphModule(
                  (module): Linear(in_features=768, out_features=768, bias=True)
                )
                (value): GraphModule(
                  (module): Linear(in_features=768, out_features=768, bias=True)
                )
                (dropout): Dropout(p=0.1, inplace=False)
              )
              (output): GraphModule(
                (dense): Linear(in_features=768, out_features=768, bias=True)
                (dropout): Dropout(p=0.1, inplace=False)
                (LayerNorm): LayerNorm((768,), eps=1e-12, elementwise_affine=True)
              )
            )
            (intermediate): GraphModule(
              (dense): Linear(in_features=768, out_features=3072, bias=True)
            )
            (output): GraphModule(
              (dense): Linear(in_features=3072, out_features=768, bias=True)
              (dropout): Dropout(p=0.1, inplace=False)
              (LayerNorm): LayerNorm((768,), eps=1e-12, elementwise_affine=True)
            )
          )
          (4): BertLayer(
            (attention): BertAttention(
              (self): BertSelfAttention(
                (query): GraphModule(
                  (module): Linear(in_features=768, out_features=768, bias=True)
                )
                (key): GraphModule(
                  (module): Linear(in_features=768, out_features=768, bias=True)
                )
                (value): GraphModule(
                  (module): Linear(in_features=768, out_features=768, bias=True)
                )
                (dropout): Dropout(p=0.1, inplace=False)
              )
              (output): GraphModule(
                (dense): Linear(in_features=768, out_features=768, bias=True)
                (dropout): Dropout(p=0.1, inplace=False)
                (LayerNorm): LayerNorm((768,), eps=1e-12, elementwise_affine=True)
              )
            )
            (intermediate): GraphModule(
              (dense): Linear(in_features=768, out_features=3072, bias=True)
            )
            (output): GraphModule(
              (dense): Linear(in_features=3072, out_features=768, bias=True)
              (dropout): Dropout(p=0.1, inplace=False)
              (LayerNorm): LayerNorm((768,), eps=1e-12, elementwise_affine=True)
            )
          )
          (5): BertLayer(
            (attention): BertAttention(
              (self): BertSelfAttention(
                (query): GraphModule(
                  (module): Linear(in_features=768, out_features=768, bias=True)
                )
                (key): GraphModule(
                  (module): Linear(in_features=768, out_features=768, bias=True)
                )
                (value): GraphModule(
                  (module): Linear(in_features=768, out_features=768, bias=True)
                )
                (dropout): Dropout(p=0.1, inplace=False)
              )
              (output): GraphModule(
                (dense): Linear(in_features=768, out_features=768, bias=True)
                (dropout): Dropout(p=0.1, inplace=False)
                (LayerNorm): LayerNorm((768,), eps=1e-12, elementwise_affine=True)
              )
            )
            (intermediate): GraphModule(
              (dense): Linear(in_features=768, out_features=3072, bias=True)
            )
            (output): GraphModule(
              (dense): Linear(in_features=3072, out_features=768, bias=True)
              (dropout): Dropout(p=0.1, inplace=False)
              (LayerNorm): LayerNorm((768,), eps=1e-12, elementwise_affine=True)
            )
          )
          (6): BertLayer(
            (attention): BertAttention(
              (self): BertSelfAttention(
                (query): GraphModule(
                  (module): Linear(in_features=768, out_features=768, bias=True)
                )
                (key): GraphModule(
                  (module): Linear(in_features=768, out_features=768, bias=True)
                )
                (value): GraphModule(
                  (module): Linear(in_features=768, out_features=768, bias=True)
                )
                (dropout): Dropout(p=0.1, inplace=False)
              )
              (output): GraphModule(
                (dense): Linear(in_features=768, out_features=768, bias=True)
                (dropout): Dropout(p=0.1, inplace=False)
                (LayerNorm): LayerNorm((768,), eps=1e-12, elementwise_affine=True)
              )
            )
            (intermediate): GraphModule(
              (dense): Linear(in_features=768, out_features=3072, bias=True)
            )
            (output): GraphModule(
              (dense): Linear(in_features=3072, out_features=768, bias=True)
              (dropout): Dropout(p=0.1, inplace=False)
              (LayerNorm): LayerNorm((768,), eps=1e-12, elementwise_affine=True)
            )
          )
          (7): BertLayer(
            (attention): BertAttention(
              (self): BertSelfAttention(
                (query): GraphModule(
                  (module): Linear(in_features=768, out_features=768, bias=True)
                )
                (key): GraphModule(
                  (module): Linear(in_features=768, out_features=768, bias=True)
                )
                (value): GraphModule(
                  (module): Linear(in_features=768, out_features=768, bias=True)
                )
                (dropout): Dropout(p=0.1, inplace=False)
              )
              (output): GraphModule(
                (dense): Linear(in_features=768, out_features=768, bias=True)
                (dropout): Dropout(p=0.1, inplace=False)
                (LayerNorm): LayerNorm((768,), eps=1e-12, elementwise_affine=True)
              )
            )
            (intermediate): GraphModule(
              (dense): Linear(in_features=768, out_features=3072, bias=True)
            )
            (output): GraphModule(
              (dense): Linear(in_features=3072, out_features=768, bias=True)
              (dropout): Dropout(p=0.1, inplace=False)
              (LayerNorm): LayerNorm((768,), eps=1e-12, elementwise_affine=True)
            )
          )
          (8): BertLayer(
            (attention): BertAttention(
              (self): BertSelfAttention(
                (query): GraphModule(
                  (module): Linear(in_features=768, out_features=768, bias=True)
                )
                (key): GraphModule(
                  (module): Linear(in_features=768, out_features=768, bias=True)
                )
                (value): GraphModule(
                  (module): Linear(in_features=768, out_features=768, bias=True)
                )
                (dropout): Dropout(p=0.1, inplace=False)
              )
              (output): GraphModule(
                (dense): Linear(in_features=768, out_features=768, bias=True)
                (dropout): Dropout(p=0.1, inplace=False)
                (LayerNorm): LayerNorm((768,), eps=1e-12, elementwise_affine=True)
              )
            )
            (intermediate): GraphModule(
              (dense): Linear(in_features=768, out_features=3072, bias=True)
            )
            (output): GraphModule(
              (dense): Linear(in_features=3072, out_features=768, bias=True)
              (dropout): Dropout(p=0.1, inplace=False)
              (LayerNorm): LayerNorm((768,), eps=1e-12, elementwise_affine=True)
            )
          )
          (9): BertLayer(
            (attention): BertAttention(
              (self): BertSelfAttention(
                (query): GraphModule(
                  (module): Linear(in_features=768, out_features=768, bias=True)
                )
                (key): GraphModule(
                  (module): Linear(in_features=768, out_features=768, bias=True)
                )
                (value): GraphModule(
                  (module): Linear(in_features=768, out_features=768, bias=True)
                )
                (dropout): Dropout(p=0.1, inplace=False)
              )
              (output): GraphModule(
                (dense): Linear(in_features=768, out_features=768, bias=True)
                (dropout): Dropout(p=0.1, inplace=False)
                (LayerNorm): LayerNorm((768,), eps=1e-12, elementwise_affine=True)
              )
            )
            (intermediate): GraphModule(
              (dense): Linear(in_features=768, out_features=3072, bias=True)
            )
            (output): GraphModule(
              (dense): Linear(in_features=3072, out_features=768, bias=True)
              (dropout): Dropout(p=0.1, inplace=False)
              (LayerNorm): LayerNorm((768,), eps=1e-12, elementwise_affine=True)
            )
          )
          (10): BertLayer(
            (attention): BertAttention(
              (self): BertSelfAttention(
                (query): GraphModule(
                  (module): Linear(in_features=768, out_features=768, bias=True)
                )
                (key): GraphModule(
                  (module): Linear(in_features=768, out_features=768, bias=True)
                )
                (value): GraphModule(
                  (module): Linear(in_features=768, out_features=768, bias=True)
                )
                (dropout): Dropout(p=0.1, inplace=False)
              )
              (output): GraphModule(
                (dense): Linear(in_features=768, out_features=768, bias=True)
                (dropout): Dropout(p=0.1, inplace=False)
                (LayerNorm): LayerNorm((768,), eps=1e-12, elementwise_affine=True)
              )
            )
            (intermediate): GraphModule(
              (dense): Linear(in_features=768, out_features=3072, bias=True)
            )
            (output): GraphModule(
              (dense): Linear(in_features=3072, out_features=768, bias=True)
              (dropout): Dropout(p=0.1, inplace=False)
              (LayerNorm): LayerNorm((768,), eps=1e-12, elementwise_affine=True)
            )
          )
          (11): BertLayer(
            (attention): BertAttention(
              (self): BertSelfAttention(
                (query): GraphModule(
                  (module): Linear(in_features=768, out_features=768, bias=True)
                )
                (key): GraphModule(
                  (module): Linear(in_features=768, out_features=768, bias=True)
                )
                (value): GraphModule(
                  (module): Linear(in_features=768, out_features=768, bias=True)
                )
                (dropout): Dropout(p=0.1, inplace=False)
              )
              (output): GraphModule(
                (dense): Linear(in_features=768, out_features=768, bias=True)
                (dropout): Dropout(p=0.1, inplace=False)
                (LayerNorm): LayerNorm((768,), eps=1e-12, elementwise_affine=True)
              )
            )
            (intermediate): GraphModule(
              (dense): Linear(in_features=768, out_features=3072, bias=True)
            )
            (output): GraphModule(
              (dense): Linear(in_features=3072, out_features=768, bias=True)
              (dropout): Dropout(p=0.1, inplace=False)
              (LayerNorm): LayerNorm((768,), eps=1e-12, elementwise_affine=True)
            )
          )
        )
      )
      (pooler): GraphModule(
        (dense): Linear(in_features=768, out_features=768, bias=True)
        (activation): Tanh()
      )
    )
    (dropout): Dropout(p=0.1, inplace=False)
    (classifier): GraphModule(
      (module): QuantizedLinear(in_features=768, out_features=1, scale=0.11445620656013489, zero_point=126, qscheme=torch.per_channel_affine)
    )
  )
)2022-04-19 15:48:29 [INFO] |*********Mixed Precision Statistics********|
2022-04-19 15:48:29 [INFO] +---------------------+-------+------+------+
…
